data/reach_two_hands/torch_model.pt (torch, 348848 bytes, 6 tensors)

dense1.weight f4 [256, 61]
0	0x3c593f3f	0.013259708
1	0x3e1e2239	0.15442742
2	0x3d821eb6	0.06353514
3	0xbdc83ef9	-0.09777636
4	0xbe7cee6c	-0.24700326
5	0x3e004c78	0.1252917
6	0x3bf87b83	0.007583083
7	0x3de80e82	0.11330892
8	0x3e82cbde	0.25546163
9	0x3d8375d8	0.06418961
10	0x3d87935c	0.066199034
11	0xbaa25d12	-0.0012387356
12	0x3d7b431d	0.0613433
13	0x3dcd8f2c	0.100370735
14	0xbced16e2	-0.028941575
15	0xbe34361a	-0.17598763
16	0x3e1350b1	0.1438625
17	0x3bcd7592	0.006270119
18	0x3d27d108	0.040970832
19	0xbd0e2272	-0.03470082
20	0xbe1bd76a	-0.15218893
21	0xbe0ab643	-0.1354609
22	0xbe1b90d8	-0.15191972
23	0x3d56cf30	0.052443683
24	0xbc82e7d5	-0.015979687
25	0x3e235277	0.15949427
26	0xbd8c136b	-0.06839641
27	0xbdad1bca	-0.08452566
28	0xbd918bf6	-0.071067736
29	0xbc6912e0	-0.014225692
30	0x3ce4502b	0.027870258
31	0xbc485dcc	-0.012229394
32	0x3cb23cac	0.021757446
33	0xbc7205b4	-0.014771868
34	0xbcb0fe5d	-0.021605665
35	0xbdb6a911	-0.089189656
36	0x3bacee6e	0.0052774465
37	0x3d4d1635	0.050070006
38	0x3d82ff0a	0.06396301
39	0x3ca080d6	0.019592684
40	0x3ca73323	0.020410126
41	0x3d6c2921	0.05765641
42	0xbd3a1eb2	-0.04543943
43	0x3c91ce62	0.017798606
44	0x3d0a400f	0.033752497
45	0xbe5300e1	-0.20605804
46	0xbb943037	-0.004522349
47	0xbddb9077	-0.10720914
48	0x3d03c271	0.032167856
49	0x3e0cc802	0.13748172
50	0xbe8aca1f	-0.2710733
51	0xbde0b6e8	-0.109723866
52	0x3f35866a	0.70908225
53	0x3e5748e4	0.210239
54	0x3e31be90	0.1735785
55	0xbf375540	-0.71614456
56	0x3f33b544	0.70198464
57	0x3e5fbed6	0.21850142
58	0xc01aaeff	-2.416931
59	0xbe1083fe	-0.14112851
60	0xbebd30d2	-0.3695131
61	0x3dd62300	0.104558945
62	0x3c5520a9	0.013008275
63	0x3e05d887	0.1307088
64	0xbe1943a3	-0.14967208
65	0xbbf91f33	-0.007602596
66	0x3cbe343b	0.023218265
67	0xbd36ae21	-0.044599656
68	0xbeb4183e	-0.35174745
69	0x3dc46125	0.09588841
70	0x3dc8a148	0.09796387
71	0x3e5778c5	0.21042164
72	0x3e1f9adc	0.15586418
73	0x3e26fba8	0.16306937
74	0xbe06a2be	-0.13148019
75	0x3d64931a	0.05580435
76	0xbd880dcf	-0.06643259
77	0xbd2b52da	-0.04182706
78	0xbd8256ec	-0.06364235
79	0x3e162d06	0.14665613
80	0x3dd8e4f8	0.10590547
81	0xbd51fe69	-0.051268015
82	0x3a9ef7c7	0.0012128287
83	0x3e0f8b40	0.14017963
84	0x3e1544c3	0.14577012
85	0x3d7441f5	0.059633214
86	0xbd9ba6d1	-0.07600177
87	0xbd7e7198	-0.06212005
88	0xbd57015f	-0.052491542
89	0x3e048dca	0.12944713
90	0xbb672b3a	-0.0035273568
91	0x3c908a74	0.017644145
92	0xbcca0f42	-0.024665479
93	0xbdf83ef7	-0.121213846
94	0xbd9f5725	-0.077802934
95	0xbcbc455a	-0.022982288
96	0x3d1db662	0.038504012
97	0xbd359c3f	-0.04433846
98	0xbd8ea664	-0.0696533
99	0x3d94f01e	0.07272361
100	0xbc941dc6	-0.018080603
101	0xbe88b683	-0.26701745
102	0x3dd2e2cf	0.102971666
103	0x3d435df7	0.047697034
104	0x3e2a4283	0.16626935
105	0x3c8ea8d2	0.017414484
106	0xbd6b66e8	-0.057471186
107	0xbdca9ef0	-0.09893596
108	0x3d221fe4	0.039581195
109	0x3e41fb26	0.18943462
110	0x3e5953eb	0.21223418
111	0xbdb9f04b	-0.09079035
112	0xbe59e05c	-0.21276993
113	0x3de571a7	0.11203318
114	0x3caee119	0.02134757
115	0xbe084334	-0.13306886
116	0xbf40a976	-0.75258577
117	0x3ea3cd50	0.31992579
118	0x3eebaff0	0.46032667
119	0x3e7c44bb	0.24635594
120	0xbd7d0c45	-0.06177928
121	0x3dca7bd4	0.098868996
122	0xbdc78b88	-0.0974341
123	0x3ef4b642	0.47795302
124	0xbdb24b47	-0.08705764
125	0xbe613068	-0.21991122
126	0x3e4a19a8	0.1973635
127	0xbdd52c22	-0.10408808
128	0xbceee77c	-0.029163115
129	0xbdcafe36	-0.09911768
130	0xbdf45832	-0.119308844
131	0xbcbda173	-0.023148274
132	0x3e15044e	0.14552423
133	0x3e1440f4	0.14477903
134	0x3e27fd53	0.1640523
135	0x3d1bf576	0.038075887
136	0x3c232b3e	0.00995904
137	0x3e6ba94c	0.230138
138	0xbe884ca1	-0.26620963
139	0x3da2a7cc	0.07942161
140	0xbd911e7d	-0.07085893
141	0x3e2c02ec	0.1679799
142	0xbe81e1a1	-0.25367454
143	0x3d9c286f	0.076248996
144	0x3e4f8b5d	0.20268007
145	0xbe1465bf	-0.14491938
146	0xbe20a165	-0.15686567
147	0xbd577b1b	-0.052607637
148	0xbdc53d11	-0.09630788
149	0xbd499441	-0.04921365
150	0xbd83efde	-0.064422354
151	0x3e486df5	0.19573195
152	0xbd81993d	-0.06328056
153	0x3c670f7b	0.014102812
154	0xbd64c418	-0.055851072
155	0xbddd3bc9	-0.10802419
156	0x3d000257	0.03125223
157	0x3dba7afc	0.09105489
158	0x3d335036	0.043777667
159	0x3d7eec31	0.06223697
160	0xbd60d092	-0.05488641
161	0x3b17dae6	0.0023171245
162	0x3eb97f1b	0.36229786
163	0xbc1dfc79	-0.009642714
164	0x3dce07ff	0.10060119
165	0xbd1f28da	-0.03885732
166	0x3e2b2c92	0.16716221
167	0xbe7d98f1	-0.24765374
168	0x3cdf967e	0.02729344
169	0x3dcbedf8	0.09957498
170	0x3c6e1b2f	0.014532848
171	0x3d3934ab	0.045216244
172	0x3e0fb402	0.14033511
173	0x3dd86f57	0.105681114
174	0x3ed30bb5	0.4121987
175	0xbd6f5717	-0.058432665
176	0xbd299348	-0.041400224
177	0x3d05527d	0.03254937
178	0xbec5ad44	-0.38608754
179	0xbe3aa8ca	-0.1822845
180	0xbfa63533	-1.2984985
181	0xbfa10f12	-1.2582724
182	0xbe3ccd4c	-0.1843769
183	0xbd8526b3	-0.06501522
184	0xbdd8a858	-0.10578984
185	0xbd9f33cb	-0.077735506
186	0x3e748aa6	0.23881015
187	0x3e26f55c	0.16304535
188	0x3cdd6d68	0.027029708
189	0x3d925062	0.07144238
190	0x3f1f1e8c	0.62155986
191	0x3e8f0613	0.27934322
192	0x3e3fbab3	0.18723564
193	0xbdb6dace	-0.089284524
194	0xbe04c8da	-0.12967244
195	0xbdcb5972	-0.0992917
196	0x3d9eed4d	0.07760105
197	0xbb87c678	-0.0041435324
198	0xbda840be	-0.082154736
199	0xbda376d3	-0.07981648
200	0xbd8650cd	-0.0655838
201	0xbdabf272	-0.08395852
202	0xbd74916b	-0.059708994
203	0xbd959629	-0.073040314
204	0xbb81bb1a	-0.003959072
205	0x3ce5df46	0.028060567
206	0xbc87c9d3	-0.01657573
207	0x3d88414a	0.06653078
208	0xbda97e02	-0.08275987
209	0x3d3f4eb4	0.046705917
210	0x3e0c78de	0.13717982
211	0xbdd7d9cd	-0.10539589
212	0x3e623122	0.22089055
213	0x3d6ac042	0.057312258
214	0x3e201d37	0.15636145
215	0xbe0d82a5	-0.13819368
216	0x3c8beea1	0.01708156
217	0x3e4fb282	0.20282939
218	0x3e708fc8	0.23492348
219	0x3ce24a09	0.027623193
220	0xbd876e6b	-0.066128574
221	0xbd412978	-0.04715869
222	0x3c9eeb65	0.019399354
223	0xbcab3fbc	-0.020904414
224	0xbd93b435	-0.07212106
225	0xbd0a1af5	-0.033717114
226	0x3dce6866	0.10078506
227	0xbd100336	-0.035159312
228	0xbd4d04f8	-0.050053567
229	0x3d3dbd14	0.046322897
230	0x3d4b102e	0.049575977
231	0xbcf416f2	-0.029796097
232	0xbd915f42	-0.07098247
233	0xbe0e5a6c	-0.1390168
234	0x3e9cafd2	0.3060289
235	0x3d4df7b0	0.05028504
236	0x3dacf470	0.0844506
237	0xbdfaf728	-0.122541726
238	0x3ed280e0	0.4111395
239	0x3ed0f121	0.40808967
240	0xbec8bbdf	-0.39205834
241	0xbeae81b4	-0.3408333
242	0xbec8fca0	-0.39255238
243	0x3e98e89a	0.2986496
244	0xbd0c269c	-0.03421651
245	0x3ed07620	0.40715122
246	0x3d22ce23	0.03974737
247	0x3e1ec683	0.15505414
248	0x3ea0de84	0.31419766
249	0x3dcf4676	0.10120861
250	0x3d04abae	0.03239029
251	0x3d4c58cf	0.049889382
252	0x3e2faf8c	0.1715681
253	0x3d0a54fa	0.033772446
254	0x3d12f3ec	0.035877153
255	0x3d619788	0.055076152

dense1.bias f4 [256]
0	0x3dbeb6ad	0.093121864
1	0xbeaed0a4	-0.34143555
2	0xbea518f0	-0.32245588
3	0xbe531212	-0.20612362
4	0x3a74b12f	0.0009334264
5	0x3f0426b8	0.5162158
6	0xbe5cf44d	-0.21577568
7	0x3e9f6e94	0.31139052
8	0x3f0e98a2	0.5570165
9	0x3cf91eed	0.030410254
10	0xbde2b071	-0.1106881
11	0x3e553130	0.20819545
12	0x3e3b97ab	0.18319575
13	0xbd701e99	-0.05862293
14	0x3e17ae33	0.14812545
15	0xbe8793ca	-0.26479942
16	0x3dcfca88	0.10146052
17	0x3dd581c9	0.10425145
18	0x3ec3c52a	0.38236362
19	0xbe70daa1	-0.235209
20	0x3f3b7ef9	0.7324062
21	0x3c5d758b	0.013516794
22	0xbe97016a	-0.29493266
23	0x3f404910	0.75111485
24	0xbe80090c	-0.25006902
25	0x3e308fbf	0.17242335
26	0x3e9f0960	0.3106184
27	0x3ea2ee57	0.31822464
28	0xbd35a630	-0.044347942
29	0x3e046b9b	0.12931673
30	0x3e10db1c	0.14146084
31	0x3d6d2186	0.0578933
32	0x3ed3fef4	0.4140545
33	0xbe39a69a	-0.1812996
34	0xbe836d23	-0.25669202
35	0xbdfb7ca4	-0.12279633
36	0x3da04227	0.078251176
37	0x3e31118d	0.17291851
38	0xbeadcb15	-0.33944002
39	0x3f159bbf	0.58440775
40	0xbe7d31e5	-0.24726065
41	0xbd18c827	-0.037300255
42	0xbb94d0e1	-0.004541502
43	0xbd345381	-0.044024948
44	0xbe094f14	-0.13409072
45	0x3e9a28d8	0.30109286
46	0xbeec1dc4	-0.4611646
47	0xbe0784f9	-0.13234319
48	0xbf1f77ef	-0.6229238
49	0x3e689f3a	0.2271699
50	0xbdea35ec	-0.11436066
51	0x3dab7d43	0.08373501
52	0xbe59b22b	-0.21259372
53	0xbc808ee0	-0.015693128
54	0xbe89f48f	-0.26944396
55	0xbe47f18a	-0.19525734
56	0xbeef2e4a	-0.46715003
57	0xbe7c131d	-0.24616666
58	0xbde470a3	-0.11154296
59	0xbe3866ec	-0.18008012
60	0x3e285651	0.16439177
61	0x3e267c66	0.16258392
62	0xbf083aa0	-0.53214455
63	0xbb8eb102	-0.004354597
64	0xbd098b3a	-0.033580042
65	0x3ec66263	0.38746938
66	0xbd70c40b	-0.05878071
67	0x3c90e075	0.017685154
68	0x3e41c972	0.18924502
69	0x3e2279eb	0.1586682
70	0x3dcaab85	0.09895996
71	0x3ecc5856	0.39911145
72	0x3e3b3bf4	0.18284589
73	0x3e4859b6	0.19565472
74	0x3e9688e1	0.29401305
75	0x3e2c6e74	0.1683901
76	0xbe02bcc6	-0.12767324
77	0xbed50f47	-0.41613218
78	0x3e537370	0.20649505
79	0xbdd7ffd0	-0.10546839
80	0xbd942a88	-0.07234675
81	0x3efd7800	0.49505615
82	0xbddd2dcb	-0.1079975
83	0xbed8d735	-0.4235169
84	0x3b1fa07c	0.002435713
85	0xbc37adb1	-0.011210845
86	0x3f0f08ea	0.55872977
87	0xbd7d72de	-0.061877124
88	0x3ef713a7	0.4825718
89	0x3ee007c2	0.4375592
90	0xbd934e89	-0.07192714
91	0xbe22c6f4	-0.15896207
92	0xbe49b8fc	-0.19699472
93	0x3e84cb58	0.2593639
94	0x3e8e458a	0.2778743
95	0x3e050542	0.12990287
96	0xbe2040ed	-0.15649767
97	0x3e44201c	0.19152874
98	0xbe293c45	-0.16526897
99	0x3f5a49de	0.8526896
100	0xbd496f7c	-0.049178585
101	0x3e41183f	0.18856905
102	0xbf401b14	-0.7504132
103	0x3f327a34	0.6971772
104	0x3db0f332	0.08640136
105	0xbee01591	-0.43766454
106	0xbe6674d9	-0.22505511
107	0xbe17a7b4	-0.14810067
108	0x3df7c321	0.12097765
109	0xbd25bd3e	-0.04046368
110	0x3e627b76	0.22117409
111	0xbcee1b84	-0.029065855
112	0xbe919b98	-0.2843902
113	0x3eee88e7	0.46588823
114	0xbe463d90	-0.19359422
115	0x3dfbb2e0	0.12289977
116	0xbdf665f6	-0.12031166
117	0xbdc71dca	-0.09722479
118	0x3d1f7ddf	0.0389384
119	0x3f0bc4df	0.54597276
120	0x3ef8b676	0.48576707
121	0xbe637dd8	-0.22215974
122	0x3e966706	0.29375476
123	0xbe9f8a58	-0.31160235
124	0xbe207bdf	-0.15672253
125	0xbeba6ed5	-0.36412683
126	0x3e3305a3	0.17482619
127	0xbd67e652	-0.056616135
128	0x3e111e28	0.1417166
129	0xbe67d349	-0.22639193
130	0x3d42502f	0.04743975
131	0x3eb7576a	0.3580888
132	0x3e6c296f	0.2306268
133	0x3e61347b	0.21992676
134	0x3e2c6d9a	0.16838685
135	0xbd8adf0e	-0.067808256
136	0x3e3efac2	0.18650344
137	0x3dc42f29	0.095793076
138	0xbe6b41c2	-0.22974303
139	0x3d1d0268	0.038332373
140	0xbe52bd40	-0.20580006
141	0x3e5c8aa3	0.2153726
142	0x3e08ddee	0.1336591
143	0xbe15e3f8	-0.14637744
144	0xbe297a65	-0.16550596
145	0x3e0c8fd2	0.13726738
146	0xbec7b81b	-0.3900765
147	0x3914af7b	0.00014179751
148	0x3e908074	0.28223002
149	0x3d008aa2	0.03138221
150	0xbd342e3d	-0.04398941
151	0x3df68474	0.12036982
152	0xbeac16ad	-0.3361105
153	0xbe897fcf	-0.26855323
154	0x3d853162	0.0650356
155	0xbe81f8b4	-0.25385058
156	0x3cdaae6a	0.026694495
157	0x3f4c0c2b	0.79706067
158	0x3ef9d002	0.4879151
159	0x3e63b137	0.22235571
160	0xbeb3f9d4	-0.3515154
161	0x3ca7d89e	0.020489033
162	0x3eeb22ff	0.45925137
163	0x3ebaba57	0.3647029
164	0x3eb18ef1	0.34679368
165	0x3e534565	0.2063194
166	0x3f34eb10	0.70671177
167	0xbe9f6ac9	-0.31136158
168	0xbf00023b	-0.50003403
169	0x3f0eff80	0.5585861
170	0xbe3e7817	-0.18600498
171	0xbee86f4f	-0.45397422
172	0xbea4b7f7	-0.32171604
173	0x3df21ac0	0.118215084
174	0x3f67d1b4	0.90554357
175	0xbe21e205	-0.15808876
176	0x3e0e394d	0.13889046
177	0xbe4712a4	-0.19440705
178	0xbf1f23e1	-0.6216412
179	0x3cd8d29b	0.026467612
180	0xbe929a89	-0.28633526
181	0x3f147333	0.5798828
182	0x3c8ce492	0.017198835
183	0x3c811d3a	0.015761007
184	0x3d9b8498	0.075936496
185	0x3d0abb4a	0.03387002
186	0x3e5475d0	0.20748067
187	0x3e8c6efc	0.27428424
188	0x3f32ef4d	0.69896394
189	0x3c8d3e23	0.017241543
190	0x3e8221d8	0.25416446
191	0xbb2853f9	-0.0025684817
192	0x3d9b3e34	0.07580224
193	0x3dc68142	0.09692623
194	0x3d57de4e	0.05270224
195	0x3e96dcdd	0.2946538
196	0x3e12320a	0.14276901
197	0x3f001973	0.5003883
198	0x3ed1d939	0.4098604
199	0xbe965541	-0.2936192
200	0xbee3f181	-0.4452019
201	0xbecc8200	-0.39942932
202	0x3dc49b61	0.09599949
203	0xbf18ac11	-0.5963755
204	0xbe85ab77	-0.2610738
205	0x3e102958	0.14078271
206	0xbed26017	-0.41088936
207	0xbe19e3a8	-0.1502825
208	0xbd9e30dd	-0.07724164
209	0x3de9b126	0.114107415
210	0xbe256991	-0.16153552
211	0x3ca95f46	0.020675313
212	0xbe044806	-0.129181
213	0xbe322824	-0.17398125
214	0xbd1df16b	-0.038560312
215	0xbca70361	-0.020387353
216	0x3d5bec58	0.05369219
217	0xbe7948d7	-0.24344192
218	0xbf089cbe	-0.5336417
219	0xbe101114	-0.14069015
220	0x3edc93e3	0.4308158
221	0x3e3924c9	0.18080439
222	0xbd6c5354	-0.057696655
223	0x3c847601	0.01616955
224	0xbf6107dd	-0.87902623
225	0x3efafee2	0.49022585
226	0xbf0fa90a	-0.5611731
227	0xbf093d9d	-0.5360964
228	0x3e37cb7c	0.17948717
229	0x3ea74604	0.32670605
230	0x3e90233d	0.28151885
231	0xbea48a8f	-0.32136962
232	0x3f32f84d	0.69910127
233	0xbf10e0e5	-0.5659316
234	0x3f213b96	0.62981546
235	0xbdb34396	-0.08753125
236	0x3da271e5	0.0793188
237	0x3e05f06c	0.13079995
238	0xbee6dfcd	-0.4509262
239	0xbeccd688	-0.40007424
240	0x3dbbf3fb	0.09177395
241	0x3d928b0f	0.071554296
242	0x3eb2327e	0.34804147
243	0xbd7be36d	-0.061496187
244	0x3e5b10c8	0.2139312
245	0xbe276689	-0.16347708
246	0x3eba528d	0.36391106
247	0x3eaec76b	0.3413652
248	0xbf27037e	-0.65239704
249	0xbec4bba3	-0.38424405
250	0xbd4e2ba2	-0.05033458
251	0xbecb3879	-0.39691523
252	0x3ed5ebde	0.41781515
253	0xbdba4477	-0.0909509
254	0xbf3741e3	-0.7158491
255	0x3ea54a42	0.32283217

dense2.weight f4 [256, 256]
0	0xbe658110	-0.22412515
1	0xbc585be6	-0.013205504
2	0xbd278aa5	-0.040903706
3	0x3d106aa7	0.03525796
4	0x3ddf7b4d	0.1091219
5	0xbeabb891	-0.3353925
6	0x3d8fe645	0.07026342
7	0x3e895e33	0.2682968
8	0x3e45c2e1	0.19312622
9	0xbe4cff3f	-0.20019244
10	0x3e95b058	0.29236102
11	0x3e076942	0.13223746
12	0xbe13dead	-0.14440413
13	0x3e0ef637	0.13961111
14	0x3e913d2a	0.28366977
15	0xbecbb322	-0.39785105
16	0x3de6c503	0.11268046
17	0x3e13c07d	0.14428897
18	0xbeaf010f	-0.34180495
19	0xbc4cf52c	-0.012509625
20	0x3cd0d723	0.02549321
21	0xbd6681a7	-0.05627599
22	0x3ec06642	0.37578017
23	0x3e1e8c65	0.15483244
24	0xbe1a561e	-0.15071914
25	0x3e116b94	0.14201194
26	0x3c12ac04	0.0089521445
27	0x3cd78c31	0.026311966
28	0xbc541ec2	-0.012946786
29	0x3cb98386	0.022645723
30	0x3bde3a12	0.006781825
31	0xbeae47e7	-0.34039232
32	0x3e3ed1fa	0.18634787
33	0x3e384d24	0.17998177
34	0xbdf8b6b5	-0.121442236
35	0xbe2e8cc5	-0.17045887
36	0xbd2f8860	-0.042854667
37	0x3d961d47	0.07329803
38	0xbdabdb62	-0.08391453
39	0xbe776e32	-0.2416313
40	0x3e30cd76	0.17265877
41	0x3e287c03	0.16453557
42	0xbe4217dc	-0.18954414
43	0x3ed8d831	0.4235244
44	0xb9f01e3f	-0.00045798902
45	0x3df8c48a	0.12146862
46	0x3e9bf0ef	0.30457255
47	0xbe6dbb32	-0.2321594
48	0x3f048073	0.517585
49	0xbe209555	-0.15681966
50	0x3dfe29cd	0.124103166
51	0xbdf8152f	-0.121134154
52	0xbc3e9bcd	-0.0116338255
53	0xbcc5dce4	-0.02415318
54	0xbd10d966	-0.035363577
55	0xbe175474	-0.1477831
56	0x3db4ee25	0.08834485
57	0xbe04d0f5	-0.12970336
58	0x3e034b78	0.12821758
59	0x3d49ccfe	0.04926776
60	0x3d4af376	0.04954859
61	0xbcd26f69	-0.02568789
62	0x3e167fa8	0.14697134
63	0x3cdb4e34	0.026770689
64	0x3d1cd0da	0.038285114
65	0xbe401207	-0.18756877
66	0x3d8c9a89	0.06865413
67	0xbddbb673	-0.10728159
68	0x3d84e536	0.06489031
69	0xbd7b00d5	-0.06128009
70	0xbe0d164f	-0.13778041
71	0xbe9a9c85	-0.3019754
72	0xbaf05d90	-0.0018338431
73	0xbd946e86	-0.07247643
74	0xbe040511	-0.12892558
75	0xbe98447f	-0.29739758
76	0x3e89923f	0.2686939
77	0x3e4042b4	0.18775445
78	0xbdbe6005	-0.09295658
79	0xbc2c6605	-0.01052237
80	0xbd7c3b6a	-0.0615801
81	0xbe9612b8	-0.29311156
82	0x3e7af351	0.2450688
83	0xbd8977e2	-0.06712319
84	0x3e8e7cc9	0.2782958
85	0x3ddb9516	0.10721795
86	0xbdb4a45d	-0.08820412
87	0x3d37261d	0.044714082
88	0xbde4b800	-0.11167908
89	0xbd9b2e03	-0.075771354
90	0xbde9a378	-0.11408132
91	0xbd1f8553	-0.038945507
92	0x3db87099	0.09005851
93	0xbea04757	-0.31304428
94	0xbc489000	-0.0122413635
95	0xbe029c7c	-0.12755007
96	0x3d9a57d8	0.07536286
97	0x3eedc1ee	0.4643702
98	0xbe0ad9b8	-0.13559616
99	0x3cab88fa	0.020939339
100	0x3d7d0438	0.0617716
101	0x3d9e480c	0.077285856
102	0xbd6b9188	-0.057511836
103	0xbc5f3b55	-0.013624986
104	0x3dbe1312	0.09280981
105	0xbe17c6a0	-0.14821863
106	0x3ddb0ce0	0.10695815
107	0xbe86a004	-0.26293957
108	0xbeb21b20	-0.3478632
109	0xbc388573	-0.0112622855
110	0xbe416074	-0.1888445
111	0xbd83f477	-0.06443112
112	0x3dd5e94a	0.10444887
113	0x3a0c5e03	0.0005354585
114	0xbd8d766c	-0.06907353
115	0x3e46e9de	0.19425151
116	0xbd2c2b9c	-0.042033777
117	0x3e872804	0.26397717
118	0x3b02c90b	0.0019956257
119	0x3e67f3be	0.22651574
120	0xbdef38c5	-0.1168075
121	0x3d98171c	0.07426283
122	0xbe8949cf	-0.26814124
123	0x3b30bd09	0.0026968142
124	0xbe19537f	-0.14973257
125	0xbc10d494	-0.008839745
126	0x3e24eaff	0.16105269
127	0x3b60376b	0.003421272
128	0x3e1b68d4	0.15176708
129	0xbe256d2a	-0.16154924
130	0xbddecf83	-0.108794235
131	0x3e26f5d8	0.1630472
132	0xbe28e489	-0.16493429
133	0xbe7a37f6	-0.2443541
134	0x3c823ade	0.01589721
135	0x3d7a9d65	0.06118526
136	0xbe5bc207	-0.21460734
137	0x3ea28c46	0.31747645
138	0x3e1694d3	0.1470521
139	0x3d70104b	0.05860929
140	0xbd94d651	-0.0726744
141	0xbe36aa3c	-0.17838377
142	0xbea98baa	-0.33114368
143	0xbea3c69d	-0.31987467
144	0xbd7ab1b7	-0.06120464
145	0xbd2c7394	-0.04210241
146	0x3e2cf2f5	0.16889556
147	0x3be50cfc	0.0069900732
148	0x3d1fb357	0.03898939
149	0x3e131b16	0.14365801
150	0xbda28f37	-0.07937472
151	0x3d2f0d2a	0.042737164
152	0xbd718d52	-0.058972664
153	0xbe803ad7	-0.2504489
154	0x3e80f9b7	0.25190517
155	0xbde4a7a1	-0.11164785
156	0x3dfb4a24	0.122700006
157	0xbe801c65	-0.25021663
158	0xbd67ffba	-0.056640364
159	0xbe2542ea	-0.16138807
160	0x3d9cb572	0.076517954
161	0xbe05da30	-0.13071513
162	0x3dcea0ea	0.10089286
163	0x3e50428b	0.20337884
164	0x3d020924	0.031747
165	0xbe06b668	-0.1315552
166	0xbe05cf26	-0.13067302
167	0x3dea58e6	0.11442737
168	0xbbc5a6f8	-0.006031867
169	0xbd4031bb	-0.046922427
170	0xbea7763d	-0.32707396
171	0xbe258491	-0.16163851
172	0xbedcc0c8	-0.4311583
173	0x3dfa8f9c	0.122344226
174	0xbc0fd5b8	-0.008778982
175	0x3db29477	0.08719724
176	0x3c0b57e0	0.008504838
177	0xbb1a349b	-0.002352989
178	0x3d80019f	0.06250309
179	0x3de9634b	0.11395892
180	0xbd079d4b	-0.03310899
181	0xbdb25cf2	-0.08709134
182	0xbcfe4d78	-0.0310428
183	0x3dc4bfe8	0.09606916
184	0x3da13c0c	0.07872781
185	0xbdadeb4c	-0.08492145
186	0xbe4981d8	-0.19678438
187	0xbe6f5946	-0.23373899
188	0xbe132e88	-0.14373219
189	0x3b9f49b6	0.004861082
190	0x3dd73cb6	0.105096266
191	0xbc41e404	-0.011834148
192	0xbd60b11d	-0.05485641
193	0xbd1f45b2	-0.038884826
194	0xbd511512	-0.051045485
195	0xbdc322c2	-0.09528114
196	0xbe798fab	-0.24371211
197	0x3d007831	0.031364623
198	0xbe9d36b3	-0.30705795
199	0x3dff7f7d	0.12475488
200	0x3dc204a9	0.09473545
201	0xbe15c21c	-0.14624828
202	0x3e028a32	0.1274803
203	0xbdd2307c	-0.10263154
204	0xbcb82979	-0.022480713
205	0x3d9f994d	0.07792912
206	0x3d9d06f3	0.07667341
207	0x3dffbae9	0.12486822
208	0xbe61bee1	-0.22045471
209	0xbe14e850	-0.14541745
210	0xbd871a44	-0.06596807
211	0xbe12c684	-0.1433354
212	0xbda8d7c2	-0.082442775
213	0x3c842c7b	0.016134491
214	0x3d715b2d	0.058924843
215	0x3e7f98b6	0.24960598
216	0xbdcbb825	-0.09947232
217	0x3e71fc61	0.23631431
218	0x3ee3f9af	0.4452643
219	0xbe830323	-0.2558833
220	0xbca05a71	-0.019574376
221	0x3dc9bf59	0.0985095
222	0xbe00362f	-0.1252067
223	0xbeb503ae	-0.3535437
224	0x3aa2e659	0.0012428268
225	0xbd6cf303	-0.05784894
226	0x3e97dd98	0.2966125
227	0xbe03f607	-0.1288682
228	0xbdac9333	-0.084265135
229	0xbda4b296	-0.08041875
230	0x3e75df87	0.2401105
231	0xbc463831	-0.012098358
232	0x3e811235	0.25209203
233	0xbe92e2bd	-0.28688613
234	0x3c72432c	0.014786523
235	0xbd2c9c0d	-0.04214101
236	0x3cd60e9a	0.02613001
237	0xbe00fd00	-0.12596512
238	0xbd816b18	-0.06319255
239	0xbd8e3102	-0.06942941
240	0x3cbebd84	0.023283727
241	0x3d689eaa	0.05679194
242	0xbdbaf91d	-0.09129546
243	0x3e498528	0.19679701
244	0xbd6fc715	-0.05853947
245	0x3d08c862	0.033394225
246	0xbe8cebdf	-0.27523705
247	0x3dbf395d	0.09337113
248	0xbd82380d	-0.06358347
249	0x3d9e5c9b	0.07732507
250	0xbd30a8c5	-0.0431297
251	0xbe73e8c0	-0.23819256
252	0xbead87be	-0.33892626
253	0xbdcadb34	-0.09905091
254	0x3e584917	0.21121632
255	0xbdd036f9	-0.10166735

dense2.bias f4 [256]
0	0xb9cbace6	-0.00038847997
1	0xbe126c73	-0.14299183
2	0xbdf56dc9	-0.119838305
3	0x3ea32d16	0.31870335
4	0xbeb11f12	-0.34594017
5	0x3e921380	0.28530502
6	0xbe0b33b1	-0.13593937
7	0x3ea04b5e	0.313075
8	0x3e10258e	0.14076826
9	0x3e3db6b8	0.18526733
10	0xbe8832a2	-0.2660113
11	0x3e512bf2	0.2042692
12	0x3ef900bb	0.4863337
13	0xbe7eb68f	-0.24874328
14	0xbe52c3b6	-0.2058247
15	0xb9ba7e2c	-0.0003557069
16	0xbe823928	-0.25434232
17	0xbcfb92b3	-0.0307096
18	0x3e8307b6	0.2559182
19	0xbe324122	-0.17407659
20	0xbeb13835	-0.34613195
21	0xbe758792	-0.23977497
22	0x3ec6836a	0.38772136
23	0xbd6d007a	-0.057861783
24	0x3e257750	0.16158795
25	0x3e94e0b4	0.29077685
26	0x3ed4cb94	0.41561568
27	0xbec19475	-0.37808576
28	0xbed5e9e2	-0.4178
29	0xbe95d445	-0.2926351
30	0x3e5892aa	0.21149698
31	0xbe2b9346	-0.16755399
32	0x3ed6386a	0.41839916
33	0xbe66febb	-0.2255811
34	0x3e3af585	0.18257721
35	0xbdec0a7a	-0.11525436
36	0x3ea72090	0.3264203
37	0x3e5ee04a	0.21765247
38	0xbe5d449c	-0.21608204
39	0xbecdb335	-0.40175787
40	0xbcb1012b	-0.021607002
41	0x3e7e3895	0.24826272
42	0x3eb5e656	0.35527295
43	0x3ebfe036	0.37475747
44	0x3df6b9f3	0.12047186
45	0x3d1b51d2	0.037919827
46	0x3e1b390e	0.15158483
47	0xbdffb8ef	-0.12486445
48	0xbd312017	-0.043243494
49	0xbd4e4f85	-0.050368804
50	0x3e0e06d7	0.13869797
51	0x3e01cf46	0.12676725
52	0xbdf58fe1	-0.11990333
53	0xbe751353	-0.23933153
54	0xbe9e237e	-0.30886453
55	0x3e5a870b	0.21340577
56	0xbe860c29	-0.26181152
57	0x3e8d3410	0.27578783
58	0x3e610921	0.21976139
59	0x3c415a63	0.011801335
60	0x3e4d0133	0.20019989
61	0xbe65d693	-0.22445135
62	0xbe5986b9	-0.21242799
63	0xbe013db8	-0.126212
64	0x3e6e5269	0.23273624
65	0xbd82746a	-0.063698605
66	0x3e9b052b	0.3027738
67	0xbe293aee	-0.16526386
68	0x3dec2e49	0.11532266
69	0xbd94a430	-0.07257879
70	0x3e9ca766	0.30596465
71	0xbd604de2	-0.054761775
72	0x3ea38cdf	0.31943414
73	0xbcdc11d5	-0.026863972
74	0xbc4ec725	-0.012620722
75	0xbddd41b3	-0.10803547
76	0x3e158e79	0.1460513
77	0x3e8f0923	0.27936658
78	0x3e8048c1	0.25055507
79	0xbdcbafa4	-0.0994561
80	0x3ec39433	0.38199005
81	0x3ed8ad9b	0.4231995
82	0xbe54cd26	-0.20781383
83	0x3d6ca58d	0.05777507
84	0x3db51415	0.08841721
85	0x3c9a9a96	0.01887254
86	0x3d388742	0.045050867
87	0xbda53842	-0.08067371
88	0xbdbcfebb	-0.092282735
89	0x3e1e0913	0.15433149
90	0xbc83d347	-0.016091956
91	0x3e3fa4d2	0.18715218
92	0xbde4fe62	-0.11181332
93	0x3e5e3d89	0.21703161
94	0x3e6deedc	0.23235649
95	0xbeaf43fc	-0.34231555
96	0x3e1f49ac	0.15555447
97	0x3e985e6c	0.29759538
98	0x3e1f4648	0.15554154
99	0xbe667050	-0.22503781
100	0xbdfb1a10	-0.122608304
101	0xbe412ae2	-0.18864015
102	0xbdce43b2	-0.100715056
103	0x3cde1c72	0.027113173
104	0x3d793584	0.060842052
105	0x3d64da21	0.055872086
106	0xbd8ae569	-0.06782038
107	0x3dbe8784	0.09303191
108	0x3ef25fbf	0.47338673
109	0x3d43566a	0.047689833
110	0x3dc129b1	0.0943178
111	0xbe2df00e	-0.16986105
112	0xbcf36bc3	-0.02971447
113	0x3e3281b0	0.17432284
114	0x3df92ab1	0.12166346
115	0x3dc5175f	0.09623598
116	0x3e71f5f9	0.23628987
117	0x3e92e5d9	0.28690985
118	0xbe45a106	-0.19299707
119	0xbea221ef	-0.31666514
120	0xbe801af3	-0.2502056
121	0xbda9b95f	-0.0828731
122	0xbca67f4c	-0.020324372
123	0x3e4623ba	0.19349566
124	0xbe5fc5ab	-0.21852748
125	0x3b364c91	0.0027816633
126	0xbdecd3a7	-0.11563807
127	0x3d360631	0.0444395
128	0x3b92572c	0.004465958
129	0x3dcab7be	0.09898327
130	0x3eae8dbb	0.34092507
131	0xbdd59939	-0.104296155
132	0x3dde7d10	0.108636975
133	0xbe6ad111	-0.22931315
134	0xbd3a77e9	-0.04552451
135	0xbd9933e7	-0.07480603
136	0x3d5ff7d2	0.0546797
137	0xbe37d372	-0.17951754
138	0x3ea38b34	0.3194214
139	0xbe9c13be	-0.30483812
140	0xbd7698a4	-0.060204163
141	0xbee10b3a	-0.43953878
142	0x3dd9faed	0.106435634
143	0x3ea6a457	0.32547256
144	0x3d6ad921	0.057335977
145	0xbdfeaacc	-0.12434921
146	0x3dc8647e	0.09784792
147	0xbe4a75eb	-0.19771545
148	0xbe4da374	-0.20081884
149	0xbe755f38	-0.23962104
150	0xbd1b5e8d	-0.037931968
151	0x3e508bbc	0.20365804
152	0x3ddbed0c	0.107385725
153	0x3e6bdfa4	0.23034531
154	0xbed3bc3f	-0.41354558
155	0x3e2f615c	0.17126983
156	0x3ec5d13d	0.386362
157	0x3daa8b88	0.08327395
158	0xbd3334ab	-0.0437514
159	0x3dcc8347	0.09985977
160	0x3d314cc5	0.043286104
161	0xbdaabaad	-0.08336387
162	0x3cafb363	0.021447843
163	0xbe329791	-0.1744063
164	0x3e50bf7e	0.20385548
165	0xbe01cfe8	-0.12676966
166	0xbda46d73	-0.08028688
167	0xbd851f16	-0.0650007
168	0xbd6d6917	-0.05796155
169	0x3ec92097	0.39282677
170	0xbe8dc7c7	-0.2769148
171	0xbec74525	-0.3891994
172	0xbe7801d7	-0.24219452
173	0xbe063704	-0.13106924
174	0xbdeacdff	-0.11465072
175	0x3ea7b886	0.32757968
176	0x3c604bd9	0.0136899585
177	0x3d789a6d	0.060694147
178	0x3cc6bf64	0.024261184
179	0xbe61f943	-0.22067742
180	0xbe5f2190	-0.21790147
181	0x3e47ec30	0.19523692
182	0xbdd8f467	-0.10593491
183	0xbe79f6e8	-0.24410594
184	0xbe788b8c	-0.24271983
185	0x3e2230c3	0.15838914
186	0xbc54c947	-0.012987441
187	0x3c68e4f9	0.014214748
188	0x3e818804	0.25299084
189	0xbd6834d5	-0.05669101
190	0xbdf65bfe	-0.12029265
191	0x3e87ec66	0.26547545
192	0xbe04c513	-0.12965803
193	0x3e7aa98d	0.24478741
194	0x3e9e4642	0.30912977
195	0x3e9f8dc4	0.31162846
196	0xbe43d2f6	-0.19123444
197	0xbdc6ef2b	-0.097135864
198	0xbe5d6e30	-0.21624064
199	0xbc806725	-0.015674183
200	0xbd428f0b	-0.047499698
201	0xbe750cfd	-0.23930736
202	0x3e3ebf36	0.18627629
203	0x3c83f80b	0.016109487
204	0x3e206ed7	0.15667282
205	0xbec2a642	-0.3801747
206	0x3e3954bd	0.18098731
207	0xbe8fd14a	-0.28089362
208	0x3e1fb203	0.1559525
209	0xbe3707e3	-0.17874102
210	0xbda7fb44	-0.08202222
211	0xbddcd882	-0.10783483
212	0xbcf0b5c4	-0.029383548
213	0x3d0143dc	0.031558856
214	0xbcc38b0e	-0.023870017
215	0x3e702a45	0.23453625
216	0x3e9b86f7	0.30376408
217	0xbd0199cb	-0.03164081
218	0x3d2daee6	0.042403124
219	0x3e2b5594	0.16731864
220	0xbe4a4135	-0.19751437
221	0x3da3aeae	0.07992302
222	0xbe6c9782	-0.2310467
223	0x3eaab772	0.33343083
224	0x3dcea4c2	0.10090019
225	0x3e04d1df	0.12970684
226	0x3dcb9400	0.09940338
227	0x3d253ea5	0.040342946
228	0xbed7067c	-0.41997135
229	0x3e0138fc	0.12619394
230	0x3d73e142	0.059540994
231	0xbea0f6bb	-0.3143824
232	0x3d1e2f90	0.038619578
233	0xbd971e8d	-0.07378874
234	0x3d8dc80d	0.06922922
235	0x3e3799dd	0.17929788
236	0xbe484fbb	-0.19561665
237	0x3d686b0c	0.056742713
238	0xbde7bcc7	-0.11315303
239	0xbe9b3075	-0.30310407
240	0x3c4931bb	0.012279923
241	0xbeb794cc	-0.3585571
242	0x3e3e0115	0.185551
243	0x3eefed03	0.46860513
244	0x3df91fc3	0.12164261
245	0xbdc0c839	-0.094131894
246	0x3d9c7cc6	0.07640986
247	0x3db5b1c8	0.088718
248	0x3e0ac63f	0.13552187
249	0x3e89169a	0.26775056
250	0x3db0592c	0.08610758
251	0x3d1ca06c	0.038238928
252	0xbcd454c9	-0.025919335
253	0x3ce7d54e	0.028299954
254	0x3e044082	0.12915233
255	0x3e638d24	0.2222181

dense3.weight f4 [19, 256]
0	0x3e682e57	0.22673927
1	0x3db6efc3	0.0893245
2	0xbe7e4f03	-0.24834828
3	0x3dc548f2	0.09633054
4	0x3efd102d	0.49426404
5	0x3da10357	0.07861965
6	0xbe39f1ae	-0.181586
7	0x3c452f0f	0.012035145
8	0xbe1a557f	-0.15071677
9	0xbe9424c4	-0.289343
10	0xbd8f73f0	-0.07004535
11	0x3deeec35	0.11666147
12	0x3e1a8a45	0.15091808
13	0xbccebc98	-0.025236413
14	0x3ed35bdc	0.4128102
15	0x3d04ecaa	0.032452263
16	0x3e2c9f75	0.16857703
17	0x3ec29a6c	0.3800844
18	0xbce9feec	-0.028563939
19	0x3e050689	0.12990774
20	0x3ee4c67a	0.44682676
21	0x3c9c4b90	0.019079
22	0xbd8d8220	-0.06909585
23	0xbe7f3b87	-0.24925052
24	0x3d3b9877	0.0457997
25	0xbe2ff0b2	-0.17181662
26	0xbf011d53	-0.5043537
27	0x3e5f8bf4	0.21830732
28	0xbd4e6ac2	-0.05039478
29	0xbe7be5f2	-0.24599436
30	0xbe024ad7	-0.12723862
31	0xbeb4152d	-0.35172406
32	0x3f3c7eb4	0.73630834
33	0x3e150430	0.14552379
34	0xbe52b894	-0.20578223
35	0x3df552e6	0.11978702
36	0x3f0b53d2	0.54424775
37	0x3f33d9e8	0.70254374
38	0xbbfea803	-0.0077714934
39	0x3bb4fdd2	0.005523422
40	0x3ee90952	0.45514923
41	0x3e3c3c46	0.18382367
42	0xbe1a78f4	-0.15085202
43	0x3e3b460d	0.18288441
44	0xbd931940	-0.071825504
45	0x3e5aa1ec	0.21350831
46	0xbdf1c0ef	-0.11804377
47	0x3e49f04d	0.19720574
48	0xbe4415c0	-0.19148922
49	0x3ee8e500	0.45487213
50	0xbd229869	-0.03969613
51	0x3ddf18af	0.1089338
52	0x3dfcffb9	0.12353463
53	0xbd7af746	-0.061270975
54	0xbeee546c	-0.46548784
55	0xbdb54252	-0.0885054
56	0xbf2ed718	-0.68296957
57	0xbe89012f	-0.26758716
58	0x3da7532c	0.08170161
59	0x3d5b6b26	0.05356898
60	0xbe3b98fe	-0.1832008
61	0xbe9e8d2d	-0.30967084
62	0xbdebae8b	-0.11507901
63	0x3f49e5b0	0.788661
64	0x3cc8699b	0.02446442
65	0x3d95e9ff	0.07320022
66	0xbdc5bff6	-0.09655754
67	0x3e1aa693	0.15102606
68	0xbda7415f	-0.081667654
69	0xbf574f9a	-0.8410584
70	0x3d6abd8f	0.057309683
71	0xbe0f9c59	-0.14024486
72	0xbdc56c93	-0.096398495
73	0x3e099b92	0.13438252
74	0x3e2f42ce	0.17115328
75	0xbe457f12	-0.19286755
76	0xbd0f39bd	-0.034967173
77	0xbd583065	-0.052780528
78	0xbeda78cb	-0.42670283
79	0xbe009b7e	-0.12559316
80	0x3eb8991f	0.36054322
81	0x3edadf9e	0.4274873
82	0xbc638439	-0.013886505
83	0x3cd609a1	0.026127638
84	0xbcb0b02f	-0.021568386
85	0xbee0acf5	-0.43881956
86	0x3e70530f	0.23469184
87	0x3e8c8fab	0.2745336
88	0x3debeee4	0.11520174
89	0x3d485cdf	0.048916694
90	0xbdc47311	-0.0959226
91	0x3e4de828	0.20108092
92	0x3e8a8585	0.27054992
93	0xbea6c712	-0.32573754
94	0x3ea7ce69	0.32774666
95	0x3d1fd3db	0.0390204
96	0xbd4df23e	-0.05027985
97	0x3deb8aed	0.11501107
98	0xbf043c0e	-0.51654136
99	0x3dabeb52	0.08394493
100	0xbf138653	-0.5762684
101	0xbde638af	-0.1124128
102	0xbc8c8463	-0.01715297
103	0xbe32ce1c	-0.17461437
104	0x3e127f8b	0.14306466
105	0xbdbe06ce	-0.09278642
106	0xbec9ab5f	-0.39388558
107	0x3e903a0e	0.28169292
108	0x3f81c877	1.0139302
109	0x3e800bc3	0.25008973
110	0x3e8a2830	0.26983786
111	0xbe50f3eb	-0.20405547
112	0x3e14261f	0.14467667
113	0xbe63f967	-0.22263108
114	0x3e2121c8	0.15735543
115	0x3ec485ff	0.3838348
116	0x3e24be40	0.160882
117	0x3bc6b152	0.0060636187
118	0xbea5129b	-0.32240757
119	0xbec6bc02	-0.38815314
120	0xbd0aa1e2	-0.03384579
121	0xbe0e7a84	-0.13913924
122	0x3ef9da55	0.48799387
123	0xbdfc81a4	-0.123294145
124	0xbe57c493	-0.21071081
125	0xbf14692a	-0.5797297
126	0x3e998678	0.29985404
127	0x3d86d5c0	0.06583738
128	0x3e2ccbfd	0.1687469
129	0xbde6fb40	-0.11278391
130	0x3f4b5ae3	0.7943556
131	0xba2cd087	-0.00065923523
132	0xbe75f927	-0.24020825
133	0xbe433dd0	-0.19066548
134	0xbe005023	-0.1253057
135	0x3da97564	0.082743436
136	0xbdb3eb76	-0.08785145
137	0x3dbb7722	0.09153582
138	0x3f2a6235	0.665561
139	0x3d9e315c	0.07724258
140	0x3b2710f4	0.0025492283
141	0xbfafa358	-1.3721724
142	0xbcb1a6d0	-0.021685988
143	0x3f20f121	0.62867934
144	0x3e60403e	0.21899506
145	0xbdec37f7	-0.11534112
146	0x3e1d714e	0.15375254
147	0xbe7cff61	-0.24706794
148	0xbe1a5813	-0.1507266
149	0x3c85ea98	0.016347215
150	0xbdd7ef25	-0.1054366
151	0xbcd1dab7	-0.025616987
152	0x3d46c7e3	0.04853047
153	0xbde66a96	-0.112507984
154	0xbe031d47	-0.12804137
155	0x3e805ee1	0.25072387
156	0x3d931178	0.07181066
157	0xbe62e6ae	-0.2215831
158	0x3eac8324	0.33693802
159	0xbcc1ea54	-0.023671307
160	0x3e147894	0.14499122
161	0xbd569779	-0.05239055
162	0xbe9286cb	-0.28618464
163	0x3f090596	0.5352415
164	0xbcda3e36	-0.026640993
165	0xbe5ca079	-0.2154559
166	0x3d5605dd	0.052251685
167	0xbc7bc98d	-0.015367878
168	0xbe27e109	-0.16394438
169	0xbda0ec77	-0.07857602
170	0xbe442086	-0.19153032
171	0xbe1ffad9	-0.15623035
172	0xbe57cd30	-0.21074367
173	0xbe1d232d	-0.1534545
174	0x3e44bbb2	0.19212225
175	0xbd399782	-0.045310505
176	0xbdf4caff	-0.11952781
177	0x3e0cb9c6	0.13742742
178	0xbebe361b	-0.37150654
179	0x3f178f79	0.59203297
180	0x3e152315	0.14564164
181	0x3e239b51	0.15977217
182	0x3e53afeb	0.20672576
183	0x3d1989a4	0.03748478
184	0x3e01dfb1	0.12682988
185	0xbe0bcc17	-0.13652073
186	0x3e9ce2df	0.3064184
187	0xbef9ba27	-0.48774835
188	0x3d956647	0.072948985
189	0x3eb3d46f	0.3512301
190	0xbe6967f9	-0.22793569
191	0x3e1c5c22	0.15269521
192	0xbe89e470	-0.26932096
193	0x3e0e294a	0.13882938
194	0x3e37c971	0.17947938
195	0x3d656334	0.05600281
196	0x3e3c88b7	0.18411528
197	0xbe00aadf	-0.12565182
198	0xbd9c87a3	-0.07643058
199	0xbe5396c8	-0.20662987
200	0x3e1182d8	0.14210069
201	0xbd802aa6	-0.062581345
202	0x3e8f040f	0.27932784
203	0xbe111b65	-0.14170606
204	0x3ee79ceb	0.45236906
205	0xbddb357f	-0.10703563
206	0x3c6e77dd	0.014554945
207	0x3e66e644	0.22548777
208	0xbdd547a5	-0.10414056
209	0x3d541999	0.051782224
210	0xbdc156f1	-0.09440411
211	0x3d69e293	0.057100844
212	0x3cc5fd2b	0.024168571
213	0x3e753b69	0.23948444
214	0xbe92f2ab	-0.28700766
215	0x3dd75fd1	0.105163224
216	0x3e43a6d4	0.19106609
217	0xbb7dd509	-0.0038731715
218	0x3df05c37	0.117363386
219	0xbe10eab0	-0.14152026
220	0xbe34b9fa	-0.1764907
221	0x3eb9d7b5	0.36297384
222	0xbd15543e	-0.036457293
223	0x3e4c514c	0.19952887
224	0x3d3df8cb	0.046379846
225	0xbd28964f	-0.04115897
226	0x3e4f4565	0.20241316
227	0x3d19b379	0.037524674
228	0xbe977abe	-0.29585832
229	0xbe792c29	-0.24333252
230	0x3da39412	0.079872265
231	0xbd9e5ad1	-0.077321656
232	0xbdc551c4	-0.09634736
233	0x3e0829e1	0.13297226
234	0xbe5be5c1	-0.21474363
235	0xbe714cab	-0.23564403
236	0x3d338ba0	0.04383433
237	0xbe400216	-0.18750796
238	0x3e827db5	0.25486532
239	0xbe8a866b	-0.27055678
240	0xbcd5c256	-0.026093643
241	0x3ee18b6c	0.44051683
242	0xbe9045b5	-0.28178182
243	0xbeed382c	-0.46331918
244	0x3e11448f	0.1418631
245	0xbe26958c	-0.16267985
246	0x3e90cd60	0.2828169
247	0x3d729e92	0.059233256
248	0xbe1b408b	-0.1516134
249	0xbd3dc0ec	-0.046326563
250	0xbe1b03fc	-0.15138239
251	0xbe4da115	-0.20080979
252	0xbd686827	-0.056739952
253	0xbb976bee	-0.0046210205
254	0xbf030898	-0.5118499
255	0xbe0262c8	-0.12732995

dense3.bias f4 [19]
0	0x3e4f6029	0.20251526
1	0x3ce9287e	0.028461691
2	0xbdc5d7af	-0.09660279
3	0x3e1a9a76	0.15097985
4	0xbf04a425	-0.51812965
5	0xbe7ded17	-0.24797474
6	0xbdf5f7a1	-0.12010122
7	0x3ca04ef8	0.019568905
8	0x3e2c9afc	0.16855997
9	0xbf53a3b5	-0.8267167
10	0xbd853c5e	-0.06505655
11	0xbde4210b	-0.11139115
12	0xbd20939d	-0.039203275
13	0xbd4cd540	-0.05000806
14	0xbc88b375	-0.016687134
15	0x3d92df55	0.071715035
16	0x3e8cb811	0.27484182
17	0x3d8516a4	0.06498459
18	0x3df4d1bd	0.11954067
