data/reach_one_hand/torch_model.pt (torch, 342704 bytes, 6 tensors)

dense1.weight f4 [256, 55]
0	0xbe717a84	-0.23581892
1	0x3d6891c1	0.056779627
2	0x3e88925b	0.2667416
3	0x3de65716	0.11247079
4	0x3e2849a9	0.16434349
5	0x3e3275d5	0.17427762
6	0x3dfe7757	0.12425106
7	0x3e7d605e	0.24743792
8	0xbdc3d0cc	-0.09561309
9	0x3c87c7da	0.016574789
10	0xbc64df02	-0.013969185
11	0xbd285a85	-0.04110195
12	0x3c25a063	0.01010904
13	0xbce600a2	-0.028076474
14	0xbdb13bdd	-0.08653996
15	0xbe63d8b1	-0.2225063
16	0x3e63b65f	0.22237538
17	0x3c8259fd	0.01591205
18	0x3c600d98	0.013675116
19	0xbdb51814	-0.08842483
20	0xbe475d12	-0.19469097
21	0xbd0f0e64	-0.034925833
22	0x3c3e8fa0	0.011630923
23	0xbdc16a85	-0.09444145
24	0x3db29583	0.08719923
25	0xbe8d72de	-0.276267
26	0x3e0355f1	0.12825753
27	0x3d978f98	0.07400435
28	0xbdb6ef14	-0.08932319
29	0xbd059066	-0.032608412
30	0x3d1df44b	0.038563054
31	0x3cd9dc25	0.02659423
32	0x3e256179	0.16150464
33	0x3dde9307	0.10867887
34	0x3d41bdc2	0.047300108
35	0xbde27998	-0.110583484
36	0x3d36f841	0.044670347
37	0x3d9ec526	0.07752447
38	0x3e1e719f	0.1547303
39	0xbdb7c946	-0.08973937
40	0xbdc3483e	-0.095352635
41	0x3d5e335e	0.054248206
42	0xbdd7c235	-0.10535089
43	0x3d7a7bd0	0.061153233
44	0x3e420135	0.18945773
45	0xbe1d4b5c	-0.15360779
46	0x3c50e06a	0.012748817
47	0xbd4489b3	-0.047982883
48	0x3cebe937	0.028797729
49	0xbce500a9	-0.027954416
50	0x3e4b69b4	0.19864541
51	0xbc92e942	-0.017933492
52	0x3f41d87c	0.75720954
53	0x3e1ba3cb	0.15199201
54	0x3ecc0864	0.39850152
55	0xbf081868	-0.5316224
56	0xbde87dd3	-0.11352124
57	0xbe7bd2c3	-0.24592118
58	0x3e401983	0.18759732
59	0xbd0d232d	-0.034457374
60	0xbdd6fc6b	-0.10497364
61	0xbd73a55d	-0.059483875
62	0x3f119a38	0.56875944
63	0xbd836441	-0.06415606
64	0xbd6696bc	-0.056296095
65	0x3c916166	0.017746639
66	0x3e33b234	0.17548448
67	0x3e58e857	0.2118238
68	0xbd4cd846	-0.050010942
69	0x3de227c2	0.110427395
70	0x3cc55c8d	0.024091983
71	0x3da1c4bd	0.07898853
72	0x3de82d4d	0.113367654
73	0xbe4b7469	-0.19868626
74	0xbdefead5	-0.117147125
75	0x3cfe86c2	0.031070117
76	0x3c587b22	0.013212951
77	0xbd19e6ba	-0.037573554
78	0x3d5d161d	0.053976167
79	0x3d9f901d	0.07791159
80	0x3c2e3dda	0.010634864
81	0x3e74d0d8	0.23907793
82	0x3d959913	0.07304587
83	0x3e0019e7	0.12509881
84	0xbdeb823c	-0.114994496
85	0xbd95f3bc	-0.07321879
86	0xbe048d3f	-0.12944506
87	0x3e4f99b9	0.20273484
88	0x3ce8f4b0	0.028436989
89	0xbd23cdf7	-0.039991345
90	0x3e0d47f8	0.13796985
91	0x3d35a88d	0.044350196
92	0xbd32ea83	-0.04368068
93	0x3e2c1e0c	0.16808337
94	0x3b1ac5b2	0.002361637
95	0xbd8e77d0	-0.06956446
96	0xbd839943	-0.06425717
97	0x3d9be51f	0.07612061
98	0xbd2fcf26	-0.04292216
99	0xbe3266f4	-0.17422086
100	0x3d19dcf4	0.037564233
101	0xbb907040	-0.0044079125
102	0x3dc54cb0	0.096337676
103	0xbcf4bbef	-0.02987477
104	0x3df87ba7	0.1213296
105	0x3dd7eabb	0.10542818
106	0x3e73f536	0.2382401
107	0xbe0fcefd	-0.14043804
108	0xbd86d20a	-0.065830305
109	0xbea016f7	-0.3126752
110	0xbc26badd	-0.010176388
111	0x3e5ec1f8	0.2175368
112	0x3beb2023	0.007175462
113	0x3e482857	0.19546638
114	0x3e3e8ca0	0.18608332
115	0x3d13cb21	0.03608239
116	0x3e309290	0.17243409
117	0x3e5df936	0.21677098
118	0x3dc8696f	0.09785735
119	0x3d800704	0.06251338
120	0x3d140d65	0.036145587
121	0xbd9f97d6	-0.07792632
122	0xbe2d68ba	-0.16934481
123	0x3cfa9715	0.03058962
124	0xbd16ea48	-0.03684452
125	0xbdebfdf1	-0.11523045
126	0xbe80a07b	-0.25122437
127	0x3d6b8f15	0.0575095
128	0xbe610afb	-0.21976845
129	0x3e531f7d	0.2061748
130	0xba7ccf49	-0.0009643925
131	0x3d9a857a	0.0754499
132	0x3d7e9fce	0.06216412
133	0xbd5f4a01	-0.054513935
134	0xbdbbeb03	-0.09175684
135	0xbe399169	-0.18121876
136	0x3d32e1be	0.043672316
137	0xbe936f9e	-0.28796095
138	0x3deaad7c	0.11458871
139	0x3d99b21c	0.07504675
140	0x3ca4a3ad	0.020097578
141	0x3cefd637	0.02927695
142	0x3d147728	0.03624645
143	0x3de4ab73	0.11165514
144	0x3cfc999e	0.03083497
145	0x3dac1e19	0.08404178
146	0x3da6e020	0.08148217
147	0xbd0fef4a	-0.035140313
148	0x3ce29dc1	0.027663114
149	0xbbd0dee9	-0.006374229
150	0xbe17229c	-0.14759296
151	0xbe60f07b	-0.21966736
152	0xbd58320d	-0.052782107
153	0xbdbe6ef3	-0.09298506
154	0x3dd070e4	0.10177782
155	0x3d9eb1e2	0.07748772
156	0xbbb2988d	-0.0054503144
157	0xbd5274ca	-0.05138091
158	0x3c9f5517	0.019449754
159	0xbe7ad69a	-0.24495926
160	0xbe2ce7c6	-0.1688529
161	0xbe6343c3	-0.22193818
162	0x3e543877	0.20724665
163	0xbea57138	-0.32312942
164	0x3ef903d4	0.48635733
165	0x3e0260fb	0.12732308
166	0xbe74422e	-0.2385337
167	0xbdbe8fda	-0.09304781
168	0xbdac637c	-0.08417413
169	0x3d3dd374	0.046344236
170	0x3d93cdd8	0.07216996
171	0xbe3b2f21	-0.18279697
172	0x3ecd3840	0.40081978
173	0xbe2a68ac	-0.16641492
174	0xbe546e73	-0.20745258
175	0xbcecf582	-0.028925661
176	0xbcaf9137	-0.021431549
177	0xbe99c075	-0.30029646
178	0xbe1f4881	-0.15555002
179	0x3dfa73d0	0.12229121
180	0x3cf0050b	0.02929928
181	0x3dbc423d	0.091923214
182	0x3e37914f	0.17926525
183	0x3dbdeaf9	0.09273333
184	0xbd5e6aae	-0.054300956
185	0xbe228225	-0.15869959
186	0xbe4f64d7	-0.20253311
187	0x3d53fa8c	0.051752612
188	0x3da76d8f	0.081751935
189	0xbea36012	-0.31909233
190	0x3c68d7e6	0.01421163
191	0x3d5c14bc	0.05373071
192	0x3da05e9e	0.07830547
193	0x3dd6fe52	0.104977265
194	0xbda820a5	-0.082093515
195	0xbd7372ea	-0.059435762
196	0xbcd065e9	-0.02543922
197	0x3ddb3190	0.10702813
198	0x3c3cb907	0.011518723
199	0x3da4f77d	0.08055017
200	0xbda35e7c	-0.07977006
201	0xbe1e98fe	-0.1548805
202	0xbde0826e	-0.109623775
203	0x3bc6bd0a	0.0060650157
204	0x3bf71722	0.0075405994
205	0xbdb8ce52	-0.090237275
206	0x3e4d3bb2	0.20042303
207	0x3e9d3bc3	0.30709657
208	0x3dc19ad8	0.09453362
209	0x3dc8ea0d	0.09810267
210	0xbe3accae	-0.18242142
211	0x3c02acbf	0.007975756
212	0x3d10d019	0.035354707
213	0x3d4e39e8	0.050348192
214	0xbdbc0351	-0.0918032
215	0xbe27bc20	-0.16380358
216	0x3d3ae501	0.04562855
217	0x3ee3b73c	0.44475734
218	0x3e32aa2b	0.17447726
219	0x3c823980	0.015896559
220	0xbe1d1460	-0.15339804
221	0x3dccd0dd	0.10000775
222	0x3e24a721	0.1607938
223	0x3da377c3	0.07981827
224	0x3ebea6ee	0.37236732
225	0x3defb4cf	0.117044084
226	0x3dd35467	0.10318833
227	0xbdf7feb9	-0.12109131
228	0x3dbabc8b	0.09117993
229	0x3ce3820b	0.02777197
230	0xbd657047	-0.05601528
231	0xbb840d95	-0.0040299394
232	0x3df5b0f7	0.11996644
233	0xbdcf4c69	-0.10121996
234	0x3db8c970	0.09022796
235	0xbce37ee0	-0.02777046
236	0xbd85207a	-0.06500335
237	0xbe4de19b	-0.20105593
238	0x3be17676	0.0068805767
239	0xbdbe6abb	-0.09297701
240	0x3ceba23a	0.02876388
241	0x3c823360	0.015893638
242	0xbd9a5015	-0.07534806
243	0xbd828316	-0.06372659
244	0x3d8a9d41	0.06768275
245	0xbe33055d	-0.17482515
246	0x3cb9db9c	0.022687726
247	0xbe1a9109	-0.15094389
248	0xbdccebf2	-0.100059405
249	0x3e117d64	0.14207989
250	0x3cba0845	0.022709021
251	0x3c88d422	0.016702715
252	0x3efc2cb7	0.49252865
253	0xbc5baf32	-0.013408469
254	0x3c888943	0.016667014
255	0x3e23208c	0.15930384

dense1.bias f4 [256]
0	0x3e805340	0.25063515
1	0xbda722ff	-0.08160972
2	0x3ef8d564	0.48600304
3	0xbf1f4ed1	-0.6222964
4	0x3f452e63	0.77023906
5	0x3f1467ad	0.57970697
6	0x3e0c3eed	0.1369588
7	0xbe34a3a0	-0.17640543
8	0xbd3cadf5	-0.046064336
9	0xbd91bd5a	-0.07116194
10	0x3e06f62c	0.13179845
11	0x3ebb36be	0.36565202
12	0x3d3d3cf0	0.046200693
13	0xbea88137	-0.32911083
14	0xbcad91d6	-0.021187704
15	0x3e94a535	0.29032293
16	0x3c038b52	0.008028822
17	0x3d8418ea	0.064500645
18	0x3ea3a711	0.319634
19	0x3eeb6777	0.45977375
20	0x3db34cb0	0.08754861
21	0x3e99f33a	0.3006838
22	0xbd91baaa	-0.071156815
23	0x3eca9460	0.39566326
24	0xbe558058	-0.2084974
25	0x3f053912	0.5204021
26	0x3e05c1ed	0.13062258
27	0xbc5abb86	-0.013350373
28	0xbe83f3a5	-0.25771824
29	0xbe974ffb	-0.29553208
30	0xbd77c028	-0.06048599
31	0xbda63ad6	-0.08116691
32	0xbea4ba9f	-0.3217363
33	0xbe8c3a82	-0.27388388
34	0xbe91c6ee	-0.28472084
35	0x3cf47ae4	0.029843755
36	0xbea10274	-0.31447184
37	0xbe4dafe4	-0.20086628
38	0x3e79582c	0.24350041
39	0xbde65c21	-0.11248041
40	0xbf016b13	-0.5055401
41	0x3e2afbe7	0.16697656
42	0x3eab1781	0.3341637
43	0x3e22be3a	0.15892878
44	0xbecd23cb	-0.4006637
45	0x3e58ec2d	0.21183844
46	0x3ec89612	0.39176995
47	0xbebdc545	-0.37064567
48	0x3e16501d	0.14678998
49	0x3df03c7c	0.117302865
50	0x3c6229b9	0.013803893
51	0xbe30c8d6	-0.17264113
52	0x3d995a37	0.0748791
53	0xbe591fcc	-0.21203536
54	0xbd6ec212	-0.05829055
55	0x3ecd1b13	0.40059718
56	0x3dfe6912	0.12422384
57	0x3e0e345e	0.13887164
58	0xbc05cb8b	-0.008166204
59	0xbdc98b0c	-0.09840974
60	0x3dc6e24a	0.0971113
61	0x3ea6ad90	0.32554293
62	0xbec702fa	-0.38869458
63	0x3eb1e91f	0.3474817
64	0xbea5c8a6	-0.32379645
65	0xbe3f2262	-0.1866546
66	0x3e97a74f	0.29619834
67	0x3cb68f1b	0.022285035
68	0xbed00cba	-0.4063471
69	0xbe99ca63	-0.3003722
70	0x3e43d50c	0.1912424
71	0xbe1adae9	-0.1512257
72	0xbe78aacc	-0.24283904
73	0xbf554df7	-0.8332209
74	0x3ad38a22	0.0016139189
75	0x3e86ba72	0.2631412
76	0xbe69f0e2	-0.22845796
77	0xbe58cbcc	-0.21171492
78	0xbd208bac	-0.0391957
79	0xbd00d0f4	-0.031449273
80	0xbec3f308	-0.38271356
81	0xbd3a1077	-0.04542586
82	0xbd9b0fde	-0.07571386
83	0xbdf1460d	-0.11780939
84	0x3d4bf974	0.049798444
85	0xbde11384	-0.109900504
86	0xbc1bce3a	-0.009509617
87	0xbe113ea2	-0.14184049
88	0x3edd7b9f	0.43258378
89	0xbe5b6f48	-0.21429169
90	0xbb8fc7d4	-0.004387835
91	0x3d851d28	0.06499702
92	0xbeb2ac68	-0.3489716
93	0x3cfd7d60	0.030943573
94	0xbe1f7327	-0.15571271
95	0x3e91446a	0.28372508
96	0x3d4b5835	0.049644668
97	0xbe84bb25	-0.2592403
98	0x3c7b799c	0.015348818
99	0xbce12a5d	-0.02748602
100	0x3ebc0dc5	0.36729255
101	0x3e74991e	0.23886535
102	0xbe3835f1	-0.17989327
103	0x3ef07ba2	0.46969324
104	0x3eb2bf67	0.34911653
105	0xbd23316c	-0.039842054
106	0x3e8eb87c	0.27875125
107	0xbd3b2dee	-0.0456981
108	0xbecb0b2e	-0.39656967
109	0x3f1803d4	0.5938084
110	0xbde623ff	-0.112373345
111	0xbe4a7928	-0.1977278
112	0xbe523dc5	-0.20531376
113	0x3df827dd	0.12116978
114	0xbeb80e22	-0.35948282
115	0x3ca8fcf9	0.02062844
116	0xbf2a7842	-0.6658975
117	0xbd810503	-0.06299784
118	0xbf134570	-0.5752783
119	0xbd443706	-0.047904037
120	0xbd1b7420	-0.037952542
121	0xbe05a9c1	-0.13053037
122	0xbc42285d	-0.011850444
123	0xbee19706	-0.44060534
124	0x3e86df6c	0.26342332
125	0xbeb059e9	-0.34443596
126	0x3e05df0c	0.13073367
127	0x3e4ae083	0.19812207
128	0xbf1165ae	-0.56795776
129	0xbd7a8e06	-0.0611706
130	0x3e8bafe2	0.27282625
131	0x3d2c698d	0.04209285
132	0x3cb60898	0.022220895
133	0x3bac00ed	0.005249134
134	0xbda00b4e	-0.07814656
135	0x3ee5d9e5	0.44892803
136	0x3ed290c3	0.4112607
137	0xbd9e36b9	-0.07725281
138	0x3cd43ac5	0.02590693
139	0x3d77e259	0.060518596
140	0x3e84e338	0.25954604
141	0xbed89770	-0.42303038
142	0xbe256816	-0.16152987
143	0x3e593555	0.21211751
144	0x3e09de7a	0.13463774
145	0xbf0b9523	-0.5452444
146	0xbf0f8284	-0.56058526
147	0xbe0acce6	-0.13554725
148	0x3e8e377d	0.2777671
149	0x3e686f9b	0.22698824
150	0x3d1c4486	0.038151287
151	0x3d9280f0	0.07153499
152	0x3dd02f7d	0.10165308
153	0x3f14973e	0.5804328
154	0x3e2480b7	0.16064726
155	0x3ead8930	0.33893728
156	0x3eb306dc	0.3496617
157	0xbe8b3d9c	-0.27195442
158	0xbeceaf3f	-0.40368077
159	0xbe1453b8	-0.14485061
160	0xbcec3517	-0.028833909
161	0xbee741b6	-0.4516732
162	0xbd36bb4e	-0.04461222
163	0xbd5e5792	-0.054282732
164	0xbdd78468	-0.10523301
165	0x3e0123a1	0.12611248
166	0xbcc23614	-0.023707427
167	0x3f128a1a	0.57241976
168	0x3e0d2f5d	0.13787599
169	0x3ec905d8	0.3926227
170	0x3ed7001b	0.41992268
171	0xbeffb9ab	-0.4994634
172	0x3d426aeb	0.047465246
173	0xbed65efb	-0.4186934
174	0x3e0a9f73	0.13537388
175	0xbdc1ecba	-0.0946898
176	0xbe74552e	-0.23860618
177	0x3e348e12	0.1763232
178	0x3eb91308	0.36147332
179	0x3f143bd7	0.5790381
180	0x3e37c9d3	0.17948084
181	0x3e40ba4f	0.18821071
182	0x3e48d6cb	0.19613187
183	0xbe8f26bd	-0.27959242
184	0x3d9b95c2	0.075969234
185	0xbd2e5b18	-0.042567343
186	0xbeef2483	-0.46707544
187	0x3d718af9	0.058970425
188	0x3e6f3027	0.23358212
189	0x3dcfd8b8	0.10148758
190	0xbd9e9151	-0.07742561
191	0x3f155e3e	0.5834693
192	0xbeb938fe	-0.36176294
193	0x3d83b26f	0.06430518
194	0xbe4fea21	-0.20304157
195	0x3e9527f0	0.29132032
196	0xbe8336ca	-0.25627738
197	0x3e36f841	0.17868139
198	0xbe316b7f	-0.17326163
199	0x3e4a49bd	0.19754691
200	0x3d2d2b66	0.042277716
201	0xbcdaa1f4	-0.026688553
202	0xbd2c9007	-0.042129543
203	0xbd64a60e	-0.055822425
204	0x3d0efe0c	0.034910247
205	0x3d9d6157	0.07684582
206	0x3de6041c	0.112312526
207	0xbe3f1917	-0.18661915
208	0xbd97fa91	-0.074208386
209	0x3e957f2e	0.29198593
210	0x3e5d9b88	0.21641362
211	0xbeac051c	-0.33597648
212	0xbe12307a	-0.14276305
213	0xbefb1248	-0.49037385
214	0xbecf1dea	-0.4045251
215	0xbdf1d4df	-0.1180818
216	0x3dddeadc	0.108358115
217	0xbd7f4f2b	-0.06233136
218	0x3d8b1754	0.06791559
219	0xbd3d65d8	-0.046239704
220	0xbe096667	-0.1341797
221	0x3ebbccec	0.3667978
222	0xbcd7493a	-0.026280034
223	0xbc9e5bca	-0.019330878
224	0x3d9f2804	0.07771304
225	0x3e44f38a	0.19233528
226	0xbdbad241	-0.09122134
227	0x3e492e0d	0.19646473
228	0x3f312f2a	0.6921259
229	0x3dd2ba22	0.10289408
230	0xbe2de770	-0.16982818
231	0xbdb90f57	-0.09036129
232	0x3d8dead4	0.069295555
233	0x3db81213	0.089878224
234	0x3f3e310f	0.7429361
235	0xbec2334c	-0.3792976
236	0xbe54e416	-0.20790133
237	0xbeaa94de	-0.33316702
238	0xbdcc92e0	-0.09988952
239	0xbdc94646	-0.09827857
240	0x3f051084	0.51978326
241	0x3e1d772c	0.15377492
242	0xbf2005b2	-0.6250869
243	0x3e865657	0.26237747
244	0x3d6f4cea	0.05842296
245	0x3e97658e	0.29569668
246	0x3e8212e7	0.25405046
247	0xbe069013	-0.13140897
248	0x3e3621ee	0.1778638
249	0xbdce19c5	-0.10063509
250	0xbe325354	-0.174146
251	0xbed13c28	-0.40866208
252	0x3f1e21f3	0.6177055
253	0xbc59688c	-0.013269555
254	0x3ddf52f0	0.10904491
255	0xbd9089a1	-0.07057501

dense2.weight f4 [256, 256]
0	0x3d32cfdb	0.043655258
1	0xbe6d39de	-0.23166606
2	0xbd70cf1d	-0.05879127
3	0xbda5f9ad	-0.081042625
4	0x3b23c528	0.002498934
5	0x3c775722	0.015096458
6	0x3e7ea83f	0.24868868
7	0x3d29c318	0.04144582
8	0x3e311ea0	0.17296839
9	0xbdba7b61	-0.09105564
10	0x3e9aaeda	0.30211526
11	0xbd021ff0	-0.03176874
12	0xbda078d0	-0.07835543
13	0x3e6b0148	0.22949708
14	0x3e444952	0.19168594
15	0xbd895185	-0.06705002
16	0xbdfe15e2	-0.124065176
17	0xbdee0b90	-0.11623299
18	0xbdff6845	-0.1247106
19	0xbe03a88c	-0.12857264
20	0xbd793170	-0.060838163
21	0xbdefab28	-0.11702567
22	0x3da4bd37	0.08043902
23	0xbd183640	-0.03716111
24	0xbe68797a	-0.2270259
25	0xbd38229c	-0.04495488
26	0x3e07cf9f	0.13262795
27	0x3d2c37c5	0.042045373
28	0x3d0b6821	0.034034852
29	0x3e028222	0.12744954
30	0xbeac132a	-0.3360837
31	0xbdf40c92	-0.1191646
32	0x3d2c31d9	0.042039726
33	0x3ce097ad	0.027416075
34	0x3b1c4630	0.0023845546
35	0x3d3be8fc	0.045876488
36	0x3d1cc864	0.038277045
37	0x3e55de85	0.20885666
38	0xbde4452a	-0.111460045
39	0x3d5939e7	0.053033736
40	0xbe7783b3	-0.24171333
41	0x3d3bbb5f	0.045832988
42	0xbe9a7e6d	-0.3017458
43	0x3e4f34bb	0.20234959
44	0x3d75952e	0.059956722
45	0x3e4e9b27	0.20176373
46	0xbd4046e0	-0.04694259
47	0xbdd23beb	-0.10265335
48	0xbda2d0e3	-0.07949998
49	0xbe040ee5	-0.12896307
50	0x3e7eaf38	0.24871528
51	0x3c255b8e	0.010092629
52	0x3cf7d317	0.030252023
53	0x3dfd5372	0.123694316
54	0x3de2a46e	0.11066519
55	0xbe4d8c4d	-0.20073052
56	0xbda76540	-0.08173609
57	0xbdd912c6	-0.10599284
58	0xbe326e88	-0.17424977
59	0xbe28ded1	-0.16491248
60	0x3e1800f9	0.14844121
61	0x3d720e1b	0.059095483
62	0x3e59be7b	0.21264069
63	0xbd919eb8	-0.07110351
64	0x3d72baea	0.059260286
65	0xbe5e548d	-0.21711941
66	0x3e4a19b3	0.19736366
67	0xbcd9706a	-0.026542861
68	0x3e770a68	0.24125063
69	0x3e5500dd	0.2080111
70	0xbe0129f2	-0.12613657
71	0xbe59c26b	-0.21265571
72	0xbdfa413b	-0.12219473
73	0x3d7e96a2	0.062155373
74	0x3e6df50e	0.23238012
75	0x3d9bf1db	0.0761449
76	0x3e143e19	0.14476813
77	0x3e139c36	0.14415058
78	0xbe45236c	-0.19251794
79	0x3d62dc23	0.05538572
80	0x3e016672	0.12636736
81	0xbd76f132	-0.060288616
82	0xbd4f17bc	-0.050559744
83	0x3d9b42a7	0.07581072
84	0x3d066f9b	0.03282128
85	0xbeb2837d	-0.34865943
86	0x3dafdfc2	0.085876
87	0x3d806aa6	0.062703416
88	0x3d811bde	0.06304143
89	0x3d5990e3	0.05311669
90	0xbd4fc0ad	-0.05072086
91	0xbdf0d809	-0.117599554
92	0x3e146787	0.14492618
93	0xbe162fbf	-0.14666651
94	0xbda866cd	-0.08222733
95	0x3bf18435	0.0073704966
96	0x3d08afd3	0.033370804
97	0x3ea88966	0.32917327
98	0xbe834a1a	-0.25642473
99	0x3e07a482	0.13246349
100	0xbd2b84a4	-0.041874543
101	0xbe2f5ea2	-0.17125943
102	0x3ea5c5fb	0.3237761
103	0x3b135e31	0.0022486562
104	0x3d9c4fda	0.07632418
105	0x3d58b35e	0.052905433
106	0x3b0fd858	0.002194902
107	0xbe2b6eaa	-0.16741434
108	0xbc0ad1eb	-0.0084729
109	0x3dabc1fc	0.08386609
110	0xbe3d7f9f	-0.18505715
111	0xbdbdf40b	-0.09275063
112	0xbdd06150	-0.10174811
113	0x3dcff1fc	0.10153577
114	0x3d6fc4c1	0.05853725
115	0x3d0e6243	0.03476168
116	0x3e0859fa	0.13315573
117	0x3d98805a	0.07446356
118	0xbea1cb84	-0.31600583
119	0x3e2f332f	0.17109369
120	0xbe94e45c	-0.29080474
121	0x3c9becff	0.019033907
122	0xbe5096e3	-0.20370059
123	0xbdaae0be	-0.083436474
124	0xbdc31a21	-0.09526468
125	0xbcc7599a	-0.024334718
126	0xbea226ca	-0.3167022
127	0x3ca0cedd	0.01962989
128	0x3db8bed1	0.0902077
129	0xbbc5190a	-0.006014948
130	0xbe3e44b9	-0.18580903
131	0x3f19feb7	0.6015429
132	0x3d0a940a	0.033832587
133	0xbe82334b	-0.25429758
134	0x3e8a19f7	0.26972935
135	0x3dc96da2	0.09835364
136	0xbe87e69c	-0.26543128
137	0xbdb81c1c	-0.089897364
138	0xbecdbabb	-0.40181527
139	0x3e004d79	0.12529553
140	0xbd9208d7	-0.07130592
141	0x3e0efe89	0.13964285
142	0xbe56b699	-0.20968093
143	0xbe2cb4bf	-0.16865824
144	0x3d85cd32	0.065332785
145	0x3e36c010	0.17846704
146	0xbd852ba2	-0.06502463
147	0x3dbd83ad	0.09253631
148	0x3e14ed07	0.14543544
149	0xbe3d68eb	-0.18497054
150	0x3d7e381a	0.06206522
151	0x3d937ecb	0.07201918
152	0x3ce1b1f2	0.027550671
153	0xbdd6fac2	-0.10497047
154	0x3dd25dc3	0.1027179
155	0xbe62e8c3	-0.22159104
156	0x3d85c4c2	0.06531669
157	0xbd18e5ba	-0.03732846
158	0xbe4df6af	-0.20113634
159	0x3e0f8fcb	0.14019696
160	0x3d078b8c	0.033092067
161	0x3e2a91cf	0.16657184
162	0xbcf95862	-0.030437652
163	0x3dcf3200	0.101169586
164	0xbd3a13fa	-0.045429207
165	0x3e205f59	0.15661372
166	0x3e502481	0.20326425
167	0x3c082cce	0.0083114635
168	0xbe37a5b4	-0.17934304
169	0x3d105a83	0.03524257
170	0xbd99c568	-0.075083554
171	0xbe62f72c	-0.22164601
172	0xbdc758de	-0.09733747
173	0xbabdac58	-0.0014470918
174	0x3ead4d3f	0.33847997
175	0x3c96c6d3	0.018405354
176	0x3db2b612	0.087261334
177	0x3e044b0d	0.12919255
178	0xbea26849	-0.31720188
179	0x3da091aa	0.07840283
180	0xbdb152fd	-0.08658407
181	0xbe8c31a4	-0.27381623
182	0xbe612a69	-0.21988834
183	0x3e0bd8aa	0.1365687
184	0x3e2118b9	0.15732087
185	0xbe0e6ae0	-0.13907957
186	0x3e29ddc3	0.16588502
187	0xbe022aa1	-0.12711574
188	0xbd9e37b6	-0.0772547
189	0x3dcb92c7	0.09940105
190	0x3d2d6096	0.04232844
191	0x3d703bc7	0.058650758
192	0xbd7234ec	-0.0591325
193	0xbe11ac16	-0.14225802
194	0x3ccb9987	0.024853481
195	0xbdf261f8	-0.11835092
196	0xbe830b75	-0.2559468
197	0x3d64a946	0.055825494
198	0x3d5de026	0.054168843
199	0x3e43ef71	0.19134308
200	0x3d4bc4db	0.049748283
201	0x3d4a7533	0.049428176
202	0x3df12f6e	0.117766246
203	0x3e1211ff	0.14264677
204	0xbd9aaeac	-0.07552847
205	0x3d3cb18b	0.046067756
206	0xbd75c872	-0.060005613
207	0x3d8c56e2	0.06852509
208	0xbe736258	-0.23767984
209	0x3d0e526b	0.03474657
210	0xbd13bc25	-0.0360681
211	0x3d0c4879	0.034248803
212	0x3d0d4a1a	0.034494497
213	0xbba9e139	-0.0051843193
214	0x3e12860a	0.14308944
215	0x3dbbece1	0.091760404
216	0x3dcc0cb3	0.0996336
217	0x3d7c116a	0.061540045
218	0x3e5fe886	0.21866044
219	0xbd82ea02	-0.0639229
220	0xbcd864ec	-0.02641531
221	0x3d43248e	0.047642283
222	0xbd96b31b	-0.073583804
223	0xbe5d712a	-0.216252
224	0x3cc402ba	0.023927081
225	0xbd8d5a7c	-0.06902024
226	0x3dba27c6	0.090896174
227	0xbe4971ef	-0.19672368
228	0xbbe75ee7	-0.007060874
229	0xbd41fa96	-0.047358118
230	0x3e7836d8	0.24239671
231	0xbe06319b	-0.1310486
232	0xbc82120e	-0.01587775
233	0xbe3346bb	-0.1750745
234	0x3c9ccbb0	0.019140095
235	0x3d1a8994	0.03772886
236	0xbe23a321	-0.15980197
237	0xbca87720	-0.020564616
238	0xbd489c6c	-0.0489773
239	0xbcadb375	-0.021203736
240	0xbdbf3b8a	-0.09337528
241	0x3bfe0767	0.0077523473
242	0x3c49a3f7	0.012307159
243	0xbe8c1075	-0.27356306
244	0x3e6acb6d	0.22929163
245	0xbdeb9326	-0.11502676
246	0x3d1b90f2	0.037980027
247	0x3e7ba1f7	0.24573503
248	0x3e1a378b	0.1506025
249	0xbc50caf1	-0.0127436975
250	0x3d481e8a	0.04885725
251	0xbb840ee1	-0.004030094
252	0xbe2f60ba	-0.17126742
253	0x3e2dbbe5	0.16966207
254	0xbe867edd	-0.26268664
255	0xbe3e0e38	-0.18560112

dense2.bias f4 [256]
0	0xbd4ddc69	-0.050259028
1	0xbe066d10	-0.13127542
2	0x3d2dbb9d	0.04241525
3	0xbe45e878	-0.19326961
4	0xbe8080e7	-0.25098345
5	0x3d8c80e1	0.06860519
6	0x3e38a842	0.18032935
7	0xbde243e6	-0.11048107
8	0x3e89fed5	0.26952234
9	0x3d709a3b	0.058740836
10	0x3e0646a8	0.1311289
11	0xbe9e1ff6	-0.3088376
12	0xbdf2d328	-0.11856681
13	0xbe1ec6f2	-0.15505579
14	0x3cfb0382	0.030641321
15	0xbdbd4e0f	-0.09243404
16	0x3dd6ee90	0.10494721
17	0xbe06a064	-0.13147122
18	0x3d522178	0.05130145
19	0x3e0d9324	0.13825661
20	0x3d74e97d	0.059792984
21	0xbd11f661	-0.035635356
22	0xbca76cfb	-0.020437708
23	0x3e9e6814	0.3093878
24	0x3e04e353	0.12977342
25	0x3e48d08f	0.19610809
26	0x3e743d20	0.23851442
27	0x3e560d2a	0.20903459
28	0xbe067c70	-0.13133407
29	0xbdcf444e	-0.1012045
30	0x3ebf2e40	0.37339973
31	0xbe3beeff	-0.18352889
32	0x3e681ee9	0.22668041
33	0x3e9ff743	0.31243333
34	0x3e562cee	0.20915577
35	0xbe5a29b7	-0.21304975
36	0xbe226b91	-0.15861346
37	0x3e52e51e	0.20595214
38	0x3e000052	0.12500122
39	0x3d63bd8d	0.05560069
40	0xbdad6d4d	-0.08468113
41	0x3e1cd502	0.15315631
42	0xbe4b9d62	-0.19884256
43	0x3e8e4555	0.2778727
44	0xbc6e8f4f	-0.014560535
45	0x3dcd00ec	0.100099415
46	0x3dd71c1f	0.105034105
47	0x3db5849d	0.088631846
48	0xbdd4bb3b	-0.10387274
49	0x3e165f98	0.14684904
50	0xbe5adcc5	-0.2137328
51	0x3df5254b	0.11970004
52	0x3d6ef885	0.058342475
53	0xbebf0a88	-0.37312722
54	0x3d4faacb	0.05069999
55	0x3e526ce9	0.20549358
56	0x3e9efcc0	0.31052208
57	0xbe2be608	-0.16786969
58	0xbe8dbad8	-0.27681613
59	0x3dcefbc3	0.101066135
60	0xbe517a0c	-0.20456713
61	0x3e3700dc	0.17871422
62	0xbd9c9c6c	-0.076470226
63	0x3dd9f05c	0.10641548
64	0xbe682c7b	-0.22673218
65	0x3e7c2175	0.24622138
66	0xbe18c78b	-0.1491987
67	0xbd771995	-0.06032713
68	0xbe1d3960	-0.15353918
69	0x3e9db9ea	0.30805904
70	0xbd732af8	-0.05936715
71	0xbe6ee104	-0.23328024
72	0xbd342ffa	-0.043991067
73	0xbe803167	-0.2503769
74	0x3ae3d977	0.0017383535
75	0xbeb1ffa4	-0.3476535
76	0x3de73841	0.112900265
77	0x3e82391f	0.25434205
78	0x3e26b90b	0.16281526
79	0x3e92a80e	0.2864384
80	0x3ec73a65	0.3891174
81	0x3db2f9d6	0.08739059
82	0x3e4aacb0	0.19792438
83	0x3c28d448	0.010304518
84	0x3e12c78c	0.14333934
85	0xbaf9fd91	-0.0019072761
86	0x3e643012	0.22283962
87	0xbd4a56f8	-0.049399346
88	0x3e5382f3	0.20655422
89	0xbc86da6c	-0.016461574
90	0xbe98d7cc	-0.2985214
91	0xbe142510	-0.14467263
92	0xbe2a143c	-0.16609281
93	0xbe15fd1a	-0.14647332
94	0xbdfd1b62	-0.123587385
95	0xbea4050d	-0.32035103
96	0xbd9fba88	-0.0779925
97	0x3e07da92	0.13266972
98	0x3e000b40	0.12504292
99	0x3c0ba1e9	0.008522489
100	0x3d971a09	0.07378013
101	0xbe76fa24	-0.24118859
102	0xbcf79787	-0.030223621
103	0xbe01dccc	-0.12681884
104	0x3e907f99	0.2822235
105	0xbe4e4996	-0.20145258
106	0x3e3eba99	0.18625869
107	0x3e5e91aa	0.21735254
108	0xbe14f08d	-0.14544888
109	0xbce58c52	-0.028021012
110	0xbd38f2a8	-0.04515329
111	0xbe235ef9	-0.15954198
112	0xbc823aef	-0.015897242
113	0x3ddc2d20	0.107507944
114	0xbaae52ab	-0.0013299783
115	0xbdfdc42a	-0.12390931
116	0xbe04016c	-0.12891167
117	0x3c8d0a3d	0.017216796
118	0x3e52e50b	0.20595185
119	0x3b4fe636	0.003172291
120	0x3d13421f	0.03595173
121	0x3dcece41	0.100979336
122	0xbe716aa1	-0.23575832
123	0xbd32bd99	-0.043637846
124	0xbcf747db	-0.03018563
125	0xbe8c4d57	-0.27402756
126	0x3e4f4e84	0.20244795
127	0xbdc72747	-0.097242884
128	0x3dd157af	0.102218024
129	0xbdfc0623	-0.12305858
130	0xbe1129d2	-0.1417611
131	0xbe5e3a00	-0.21701813
132	0xbe815428	-0.2525952
133	0xbc89673c	-0.016772859
134	0x3e617792	0.22018269
135	0x3e5d3002	0.21600345
136	0xbd33bda8	-0.043882042
137	0x3d8f30be	0.06991719
138	0x3ddf7243	0.109104656
139	0x3e1a5515	0.15071519
140	0x3c2a1ddb	0.010383095
141	0xbe3e26ae	-0.18569443
142	0x3dc4df3f	0.09612893
143	0x3d83889e	0.06422542
144	0x3e7115c0	0.23543453
145	0xbcf5f347	-0.03002323
146	0x3ea9e784	0.33184445
147	0xbe11da41	-0.14243414
148	0x3e94fedd	0.29100695
149	0xbe3097fa	-0.17245474
150	0xbe0231ad	-0.12714262
151	0x3e3cf351	0.18452193
152	0x3d9d5e8f	0.07684051
153	0x3e397fe1	0.18115188
154	0x3ea8e0ac	0.3298391
155	0xbe1dac47	-0.1539775
156	0xbe189b0d	-0.14902897
157	0xbe8594aa	-0.26089984
158	0xbeb22f33	-0.34801635
159	0x3dcae1ad	0.099063255
160	0x3cb09100	0.021553516
161	0x3e70f304	0.23530203
162	0x3cbd285e	0.023090538
163	0xbe55dac8	-0.2088424
164	0x3df2f79f	0.11863636
165	0xbd88acf4	-0.06673613
166	0xbd8dbb59	-0.06920499
167	0xbdeb0a7e	-0.114766106
168	0xbeee6d84	-0.4656793
169	0x3e2acb41	0.16679098
170	0x3e137586	0.144003
171	0x3e240551	0.16017653
172	0xbe986013	-0.297608
173	0xbe6e4cc4	-0.23271471
174	0xbe7592b8	-0.2398175
175	0xbe07a591	-0.13246752
176	0xbe992ff5	-0.299194
177	0xbc98b23c	-0.018639676
178	0xbdadd684	-0.08488181
179	0x3dc402bd	0.09570835
180	0x3dd8501f	0.10562157
181	0xbde6a37c	-0.11261651
182	0x3c86726d	0.016411984
183	0x3ecf22d4	0.4045626
184	0xbe9f3b1f	-0.31099793
185	0x3d54fdf4	0.052
186	0xbd0a4262	-0.033754714
187	0x3e9348ff	0.2876663
188	0x3eb49043	0.35266313
189	0x3d557c5d	0.052120555
190	0x3e46bc8c	0.19407862
191	0x3ce19895	0.027538577
192	0xbe50503d	-0.20343108
193	0x3dc6b159	0.09701795
194	0x3dd82652	0.10554184
195	0x3e2b91c2	0.16754821
196	0x3e6470e3	0.22308688
197	0x3e3d8724	0.18508583
198	0x3d9b676d	0.07588086
199	0xbcac461a	-0.02102952
200	0xbe12e093	-0.14343481
201	0xbd11ca84	-0.035593525
202	0x3e14a253	0.14515047
203	0xbe1f69a7	-0.15567647
204	0x3db961c6	0.09051852
205	0xbdf0fa6b	-0.117665134
206	0x3e71330b	0.23554628
207	0xbe2b2bdd	-0.16715951
208	0x3e74f9b8	0.23923385
209	0x3dec069c	0.11524698
210	0xbe395640	-0.18099308
211	0xbe1dde3f	-0.15416811
212	0xbe1737d2	-0.14767388
213	0xbd8c83fb	-0.06861111
214	0xbe7b58de	-0.24545619
215	0xbe3e3b50	-0.18577313
216	0x3eb691db	0.35658154
217	0x3dadaac5	0.08479837
218	0x3e3521dd	0.17688699
219	0x3d234ff4	0.03987117
220	0xbe4e5d87	-0.20152865
221	0x3e072b60	0.1320014
222	0x3d621ea9	0.05520502
223	0xbe3cdfd9	-0.18444766
224	0x3e5c7116	0.21527514
225	0x3e0ca3ec	0.13734406
226	0x3df64e35	0.120266356
227	0xbd7affbc	-0.061279044
228	0x3e62700f	0.2211306
229	0x3c1d6a4e	0.009607865
230	0xbe56468e	-0.20925352
231	0x3e3a348b	0.18184106
232	0xbe41f2f9	-0.18940343
233	0x3c3d55b6	0.01155608
234	0xbde50e81	-0.11184407
235	0xbe226636	-0.15859303
236	0x3d8d5201	0.06900407
237	0xbe59f823	-0.21286063
238	0x3dc30d7e	0.09524058
239	0xbd16b76e	-0.036796026
240	0x3dfeb6ac	0.12437186
241	0x3e6eaa79	0.23307218
242	0x3d8f6e9f	0.07003521
243	0x3e38582e	0.18002388
244	0xbc866f15	-0.01641039
245	0x3e70ad03	0.23503499
246	0xbc1b7001	-0.009487153
247	0xbdc50862	-0.096207395
248	0xbccf5979	-0.025311219
249	0x3eb27ef8	0.34862494
250	0x3d0dab68	0.034587294
251	0x3ea41dd3	0.32054004
252	0xbcc3bcfd	-0.023893828
253	0xbeaccf29	-0.337518
254	0xbe145c46	-0.14488325
255	0x3d739c76	0.059475385

dense3.weight f4 [19, 256]
0	0x3d65303f	0.055954214
1	0x3ea5b5c9	0.32365254
2	0x3e90da00	0.2829132
3	0x3e20bc7a	0.15696898
4	0x3e72c0cd	0.2370636
5	0x3e963243	0.29335222
6	0x3e247a22	0.16062215
7	0x3eb650d1	0.35608533
8	0xbd6eeb7b	-0.05833004
9	0xbccfc1d6	-0.025360983
10	0xbd7bcd86	-0.0614753
11	0x3d5d0e82	0.053968914
12	0x3a0a0ba0	0.00052660145
13	0xbdda5a1d	-0.10661719
14	0xbca2d1c2	-0.019875411
15	0xbdcaa536	-0.09894793
16	0x3f004b7d	0.50115186
17	0xbe30349b	-0.17207567
18	0xbd4b382d	-0.04961412
19	0x3d59805d	0.053100932
20	0xbdc7328f	-0.0972644
21	0xbe4771e4	-0.1947704
22	0xbdc60a5f	-0.09669947
23	0x3de439d0	0.11143839
24	0x3e544509	0.2072946
25	0x3cde72d1	0.027154358
26	0x3e48955e	0.19588229
27	0x3dcde005	0.10052494
28	0x3eb1ea89	0.3474925
29	0xbdacfddd	-0.08446858
30	0x3e98a395	0.29812303
31	0x3c320712	0.0108659435
32	0xbe267f04	-0.1625939
33	0x3e942f6a	0.28942424
34	0xbe4f96be	-0.20272347
35	0xbe80ce4c	-0.25157392
36	0xbd9af272	-0.07565774
37	0x3e58d073	0.21173267
38	0x3e21dafa	0.15806189
39	0x3d9bd916	0.07609765
40	0x3f0555dd	0.5208414
41	0xbdeb8d1d	-0.115015246
42	0x3d990879	0.07472319
43	0x3e7c8b39	0.24662484
44	0x3e8f29a7	0.27961466
45	0xbe97eaf6	-0.29671448
46	0xbdc01e86	-0.09380822
47	0xbe49caea	-0.19706312
48	0xbce2102f	-0.027595608
49	0x3e4e94a1	0.20173885
50	0xbda6353c	-0.081156224
51	0x3c934762	0.017978374
52	0xbe8fa6ee	-0.28057045
53	0xbe7a6df9	-0.24456014
54	0x3e5a683a	0.21328822
55	0xbe85a5f2	-0.2610317
56	0x3e947cad	0.2900137
57	0xbd6bf0cc	-0.05760269
58	0xbd863442	-0.06552936
59	0xbde4fb72	-0.11180772
60	0xbe9e8b7f	-0.30965802
61	0x3ee3e14a	0.4450782
62	0x3d05f4bf	0.03270411
63	0x3b3237ab	0.0027193825
64	0x3e4a46f3	0.19753627
65	0x3e7ecd3c	0.24882978
66	0x3bc92b6b	0.006139209
67	0x3d98647a	0.074410394
68	0x3d8b2e2a	0.067959145
69	0x3d808ca0	0.06276822
70	0x3abbd376	0.0014329988
71	0xbc2dfe9d	-0.010619787
72	0x3e146f03	0.14495473
73	0xbe603b89	-0.21897711
74	0xbe1aed28	-0.1512953
75	0x3e8ecb6b	0.2788957
76	0x3ddee862	0.10884167
77	0xbe34181b	-0.1758732
78	0xbd95e2bd	-0.073186375
79	0x3e887719	0.26653364
80	0x3d6966ce	0.056982808
81	0x3cbeedb1	0.0233067
82	0xbc586eec	-0.01321004
83	0x3e14a975	0.14517768
84	0x3d70a261	0.058748607
85	0x3e0580d2	0.13037422
86	0xbe59a2da	-0.21253529
87	0xbea4b5e4	-0.32170022
88	0x3d8d7b89	0.06908328
89	0xbbad87a9	-0.005295713
90	0xbe320d15	-0.17387803
91	0x3e39e922	0.1815534
92	0xbc47a7fc	-0.012186047
93	0x3d2fad1b	0.042889696
94	0x3e5a6c50	0.2133038
95	0xbeb36e5d	-0.35045138
96	0xbe50b054	-0.20379764
97	0x3da01f77	0.078185014
98	0xbd6565d9	-0.056005333
99	0x3d8b4a32	0.06801261
100	0xbca572b4	-0.020196296
101	0xbe8c3262	-0.2738219
102	0x3e2afb7e	0.16697499
103	0xbce4aacb	-0.027913472
104	0xbb5334e1	-0.0032227563
105	0xbeafec1a	-0.3435982
106	0xbf0ba618	-0.54550314
107	0x3c8ce6c9	0.01719989
108	0xbd9877e5	-0.07444743
109	0xbe48f72d	-0.1962554
110	0x3e0ec09d	0.13940664
111	0x3ea7fadc	0.32808578
112	0x3d618743	0.055060636
113	0x3e247228	0.16059172
114	0x3d9771ea	0.07394774
115	0x3dcdee05	0.10055164
116	0xbccb2859	-0.024799513
117	0x3b36fed8	0.0027922895
118	0x3dabf35e	0.08396028
119	0x3d914faa	0.07095273
120	0xbe3b4e16	-0.18291506
121	0x3e49210f	0.19641517
122	0x3ef84c7c	0.48495853
123	0x3e920c61	0.2852507
124	0xbced8abf	-0.028996823
125	0xbe94d465	-0.29068294
126	0xbe763402	-0.24043277
127	0x3e355d7f	0.17711447
128	0x3e1dee55	0.15422948
129	0xbb60f6ec	-0.0034326864
130	0xbe80561a	-0.2506569
131	0xbe127704	-0.14303213
132	0xbe55cb13	-0.20878248
133	0x3deeb520	0.116556406
134	0xbb96c91e	-0.0046016118
135	0x3e659af8	0.22422397
136	0xbceba574	-0.028765418
137	0x3e1badb1	0.15202977
138	0x3e08d5d7	0.13362823
139	0xbe2d2a08	-0.16910565
140	0xbda22385	-0.07916931
141	0xbdd1efd3	-0.10250821
142	0xbc73692f	-0.014856621
143	0x3f0ffb76	0.56243074
144	0x3e3cf602	0.1845322
145	0x3e8ab080	0.27087784
146	0xbea602a9	-0.32423905
147	0xbe7ad7d1	-0.2449639
148	0xbe68d35a	-0.22736874
149	0xbd7cd5e1	-0.06172741
150	0x3e9b4264	0.3032409
151	0xbd7467b2	-0.059669204
152	0xbd2bac5e	-0.04191243
153	0x3d113e8b	0.035460036
154	0x3efe25f5	0.49638334
155	0xbe3a249e	-0.18178031
156	0xbd2cfb91	-0.0422321
157	0x3dbba732	0.09162749
158	0xbe5e6549	-0.21718325
159	0xbd97ecdb	-0.074182235
160	0xbdb12db9	-0.08651299
161	0x3ee1a614	0.4407202
162	0xbd9448a4	-0.072404176
163	0xbda151c9	-0.078769274
164	0x3df78862	0.1208656
165	0xbe1e845d	-0.1548018
166	0x3ee841ae	0.4536261
167	0x3ce8a0ce	0.02839699
168	0x3de5ff65	0.11230353
169	0xbcf79767	-0.030223561
170	0x3ea3d0c0	0.319952
171	0x3d906379	0.07050223
172	0xbdea70a8	-0.11447269
173	0x3eb1dd91	0.34739354
174	0x3ce48baf	0.027898638
175	0x3e8c15bb	0.2736033
176	0xbd0b35c0	-0.033986807
177	0xbe0d75c5	-0.13814457
178	0xbd483a17	-0.048883524
179	0x3d871678	0.065960824
180	0x3dc39d5a	0.09551497
181	0xbddb4e7e	-0.107083306
182	0xbd53b8dd	-0.05168997
183	0x3e523b32	0.20530394
184	0x3d54f7ae	0.05199402
185	0xbe5aa1de	-0.2135081
186	0xbc48f977	-0.012266508
187	0x3ebc2841	0.3674946
188	0x3e2a1a7a	0.16611663
189	0xbe40eeba	-0.18841067
190	0xbd96874c	-0.073500246
191	0x3dcb5777	0.09928792
192	0xbd742b93	-0.059611868
193	0xbdda022f	-0.10644948
194	0x3abeb689	0.0014550249
195	0xbd3d7cac	-0.046261474
196	0x3e6a23b7	0.22865187
197	0x3e54e63c	0.20790952
198	0xbdfb6fb3	-0.12277164
199	0xbc6aff4a	-0.014343092
200	0x3e22798a	0.15866676
201	0xbe66bd49	-0.22533144
202	0xbe1ea1d1	-0.15491416
203	0xbda67a5c	-0.08128807
204	0xbe95d33b	-0.2926272
205	0xbe2cfa9a	-0.16892472
206	0x3d6a76b1	0.0572421
207	0xbd1b3c6b	-0.037899416
208	0xbd43e77f	-0.047828194
209	0xbe4257ec	-0.18978852
210	0xbe7d73f7	-0.24751268
211	0xbcfe01b1	-0.031006666
212	0xbe7e4b97	-0.24833523
213	0xbe1133d2	-0.14179924
214	0x3d8a2ed4	0.06747213
215	0x3e140fdf	0.1445918
216	0x3de34ffd	0.11099241
217	0x3e190f31	0.14947201
218	0xbc4a76da	-0.012357438
219	0x3e13ba37	0.14426504
220	0x3cab9d40	0.020949006
221	0xbebdea86	-0.3709299
222	0xbde9a2a8	-0.11407977
223	0xbcc4f0f2	-0.024040673
224	0xbe0a9fd3	-0.1353753
225	0xbc816bc0	-0.01579845
226	0xbe1c993f	-0.15292834
227	0x3e876d86	0.26450747
228	0x3e55a898	0.20865095
229	0xbe1d234a	-0.15345493
230	0xbeab4ae3	-0.33455572
231	0xbeb04864	-0.3443023
232	0xbeada696	-0.33916157
233	0xbe01bd60	-0.12669897
234	0xbe1fa8f7	-0.15591799
235	0xbe66540b	-0.22492997
236	0x3dcc86f2	0.09986676
237	0x3e834fc6	0.256468
238	0xbaa8f870	-0.0012891423
239	0xbc6e98e6	-0.014562821
240	0x3e971f2a	0.29515964
241	0xbd25279d	-0.04032098
242	0xbe2de579	-0.16982068
243	0x3e4981cb	0.19678418
244	0x3e07fdac	0.13280362
245	0x3b8d2cc9	0.0043083173
246	0xbc8d21f8	-0.017228112
247	0x3da24c26	0.079246804
248	0x3de5b804	0.11216739
249	0xbe2be887	-0.16787921
250	0xbe886338	-0.26638198
251	0x3e5aed43	0.2137957
252	0x3e15ad0c	0.14616793
253	0xbe9ab1b2	-0.30213696
254	0xbe693efb	-0.22777931
255	0x3e30bcc5	0.1725951

dense3.bias f4 [19]
0	0x3e66b895	0.2253135
1	0xbd82c876	-0.06385891
2	0xbdce4f8a	-0.100737646
3	0x3e135a8e	0.14390013
4	0xbe87aab7	-0.26497433
5	0xbddc2bd7	-0.10750549
6	0x3d81ab73	0.063315295
7	0x3d5087af	0.050910648
8	0x3de665b8	0.1124987
9	0xbe8153a1	-0.25259116
10	0x3c86e2d2	0.016465578
11	0x3c16ee54	0.009212095
12	0xbcc05677	-0.02347873
13	0x3e225b80	0.15855217
14	0xbd41c617	-0.047308054
15	0xbe6d0bb6	-0.23148999
16	0x3e5b7f79	0.21435346
17	0x3e9104f7	0.283241
18	0xbe80b0fd	-0.2513503
